py_workflow/model_simulation_validation/optimized_model/comp1_noise_speech/fold5_best.pth (torch, 382882 bytes, 20 tensors)

features.0.weight f4 [32, 1, 3, 3]
00000000: df9f 86be 6e86 493e 4339 143e 2f77 2a3e
00000010: 38c5 9d3e 389e 39be b26b febd f12b 983e
00000020: 4f61 35be 9d12 0f3a 932e 393e ca9f 60be
00000030: 752e 94bd 84b5 43be 0a9c b2be f3a7 7bbd
00000040: e9fb 95be 4f13 843e e3bb 53bc 592a 36bd
00000050: b42d 2abe 194a 903e a887 ddbd e06a 7bbe
00000060: 0497 91bd 6f70 243e eeb5 a93e 3259 bebd
00000070: d08c cd3c 8756 b83d 8ac6 56be b06f e43c
00000080: b1c9 aa3e 050d 90be d71c 8c3e 15ee 5abe
00000090: bad9 8b3e 57fb 7c3e 01d3 c13d 8f83 1abe
000000a0: 5f18 d7bd e728 8a3e 7337 4f3e fefd 903e
000000b0: 7d58 573e e53d 893d 0318 e63d 22a9 c0bd
000000c0: af59 1fbe 77ae 8bbc 6434 593e 6c8f b23e
000000d0: d7ec 383e b397 883d 19e1 0f3e 2edb a43d
000000e0: 042b a33d c2d0 983d 065a 733e 79b0 873e
000000f0: a9d8 4ebc ca8f 8c3e e9fd 3bbd e384 1a3e
00000100: 135c 5b3e e5ec 81be 5ff7 5d3d af71 933a
00000110: fea1 263e d5b7 9a3e fb63 853e a24f 2cbe
00000120: dace 9d3e 949b 70be 5a81 32be f3dd 8abb
00000130: 796e 483e 9a43 3ebe b8d1 5abe 0983 d43c
00000140: 6783 853e 98fe 25be 30d0 a13e 67e8 4c3e
00000150: 6143 46bd be9d b03d 3b1d 66be c677 12be
00000160: 6aff aabc d6c5 9dbe 9858 70bc 67e2 43be
00000170: 36a3 10be ab75 ab3e 8441 6e3e 7cfa 05b8
00000180: ea23 1ebe 18a8 a6bd f40c 903e f118 a03e
00000190: 8159 47bd c387 32be afc4 aa3e e17b e23c
000001a0: 2bc2 f63d 3267 47be fe8a a0bc d8f1 163d
000001b0: 1150 093d 0358 4d3d 319a 19bc 83c6 78bd
000001c0: 1cf6 ce3d b254 80be 8145 9e3c e711 aa3d
000001d0: 9949 abbe 97a9 6dbe 7b4b 203e 995d b3bd
000001e0: 20f0 853e be44 893d 04fb a83e 78d5 3a3c
000001f0: f6e6 c33d ed93 febc a3f1 8c3e 6162 49be
00000200: 1b35 a33e 90ce 32be 6338 5bbe 1f39 4e3e
00000210: e6d2 993e fcac 49be 2b3c 903e d7a1 99be
00000220: 4791 46be 4f13 643e 3976 2cbe 4943 633e
00000230: c893 4a3d 7bc1 15be 2170 c6bd 0fcd 763e
00000240: a08f 6fbe d15e 4f3d 5729 b73b 6404 21be
00000250: ea48 86bd de61 84be bf82 9dbe 80db 853e
00000260: b1e6 4fbd e29c 193e 5f0d 5d3e e256 843e
00000270: e3b9 063e 05a7 7c3d 7162 a3be 9998 1a3e
00000280: 2c9b 7f3e cbd3 a1be 850c 113d a333 ed3d
00000290: 9abd b13e 1a1d b23d ecb6 92be e32c 5d3e
000002a0: c4b6 f53a 44a8 63be 43e8 ff3d eb63 4bbd
000002b0: b384 d7bd 7286 173e 2626 8fbe a1f9 1b3e
000002c0: cfd4 2d3e 5b73 a83d e980 fbbc 719c 42bd
000002d0: aed0 a13d 73ac 14bc 3df3 993e fcb3 9bbe
000002e0: a70c 1cbe fc61 64be 09c8 9ebe 9777 9a3e
000002f0: 44a8 173d f67a aabb f3b7 ca3d 028b 503e
00000300: 3b83 4abe 8852 303d 547e 803d d8c3 b9bd
00000310: 33c2 85be 39a8 393d b76d a33d a6b9 973e
00000320: 9767 adbe da39 82bd 1f29 19be a3eb 723e
00000330: 26fd 2e3e 5d96 e63c 5f37 54be 68e9 b5bc
00000340: 4375 683e 51f8 a63e 906a f43d 8382 40be
00000350: a1c1 8d3e f4a1 38be da9d 213e 0b2f b8bd
00000360: fc49 4cbe 3c32 55be 86b1 85be 7993 ba3d
00000370: 7345 163e 93a6 62be 6a73 063e c342 94be
00000380: b0c4 65be 325a 45be d52e 083d 5261 d9bd
00000390: 5746 87be 71a6 dcbd c413 903e b0c6 ad3d
000003a0: 63c5 2e3c 9fc4 903e 4797 98bc a253 36bd
000003b0: 5c66 a83e 52e9 f0bc 4a15 4ebe 8443 973e
000003c0: 5c9b 29be d84c 893e 758a b23e 647f 783e
000003d0: f205 9cbe e94b 673d c18e f9bb c5c1 66be
000003e0: 2769 11be d74e 653e faf0 dabd 8679 513d
000003f0: 8292 a0be f3c9 073e 5349 103e 4f7e 6fbe
-0.26293847 0.19680187 0.14474969 0.16647027 0.30814528 -0.18126762 -0.12422885 0.29721025
-0.17712902 0.00054577907 0.18084173 -0.21935955 -0.072354235 -0.19112211 -0.34884673 -0.061439466
-0.29293755 0.2579598 -0.012923214 -0.04447398 -0.16618997 0.28181532 -0.1081689 -0.24552488
-0.07108882 0.16058515 0.33146614 -0.092943564 0.025091559 0.09000879 -0.20974174 0.027885288
0.33357003 -0.28134933 0.27365753 -0.21379884 0.2731455 0.24705254 0.09464074 -0.15089248
-0.10502695 0.2698433 0.20235996 0.2831878 0.2102985 0.067012586 0.112350486 -0.094072595
-0.15561555 -0.017050965 0.21211392 0.34875047 0.18059097 0.06669559 0.14050712 0.08049618
0.07967189 0.074616924 0.2376481 0.26501825 -0.012624898 0.27453452 -0.045896444 0.15089755
0.21421842 -0.2537605 0.05419099 0.001124909 0.16272733 0.30218378 0.26052842 -0.16827253
0.30821878 -0.23496848 -0.17432156 -0.004237884 0.19573392 -0.18580475 -0.21369064 0.025941389
0.26076815 -0.16210401 0.31604147 0.2001053 -0.0484041 0.08623837 -0.22472088 -0.14303502
-0.020873744 -0.30815 -0.01466956 -0.19129334 -0.1412476 0.3348821 0.2326718 -3.1942953e-05
-0.15443388 -0.0813753 0.28134882 0.3126903 -0.048669342 -0.17434601 0.33353183 0.02764696
0.12048753 -0.1947296 -0.019597527 0.036851734 0.033523623 0.050132763 -0.009375141 -0.06073619
0.101055354 -0.25064617 0.019320251 0.08304196 -0.33454588 -0.23209225 0.15653794 -0.08758087
0.26159763 0.06702565 0.3300401 0.011403434 0.09565537 -0.031076396 0.27528104 -0.19666435
0.31876454 -0.1746161 -0.21408229 0.20138977 0.30043715 -0.19694895 0.28170905 -0.30006287
-0.19391356 0.2227299 -0.16841973 0.22193636 0.04945734 -0.14624588 -0.09689356 0.24101661
-0.23394632 0.050627533 0.005589645 -0.15724331 -0.06556876 -0.25855917 -0.30763814 0.26144028
-0.050757114 0.15001252 0.21587132 0.25847536 0.13156848 0.06168272 -0.31911042 0.15097274
0.24961537 -0.31606898 0.03541233 0.115821145 0.34714967 0.08696957 -0.28655183 0.21599154
0.0018746485 -0.22232157 0.12495472 -0.049655836 -0.10523357 0.1479738 -0.27958792 0.15231945
0.16975711 0.08225127 -0.030701118 -0.047512475 0.079011306 -0.009074318 0.3006839 -0.30410755
-0.15239201 -0.22303003 -0.3101199 0.30169365 0.037025705 -0.0052026464 0.09898367 0.20365527
-0.19776623 0.043047458 0.06274095 -0.09070557 -0.26124725 0.045326445 0.07979911 0.29633826
-0.33868095 -0.063586906 -0.14957093 0.23722701 0.17088756 0.02814787 -0.20724247 -0.022206023
0.22700982 0.32611325 0.11934388 -0.18799786 0.2768679 -0.1803053 0.15782872 -0.08993348
-0.19950098 -0.20819944 -0.26112002 0.091101594 0.1467493 -0.22133856 0.13129964 -0.28957185
-0.22438312 -0.19272688 0.033247788 -0.106142655 -0.26420853 -0.10773934 0.2814008 0.08485162
0.010667178 0.2827501 -0.018626822 -0.044513352 0.32890594 -0.02940813 -0.20125309 0.29543698
-0.16563171 0.2681644 0.3487126 0.24267346 -0.30473286 0.056468878 -0.0076158945 -0.22534855
-0.14200269 0.22393356 -0.10690494 0.051141284 -0.31361777 0.13260631 0.14090471 -0.23388027

features.0.bias f4 [32]
00000000: 42c5 9cbe ff64 acbb fb08 6cbe 7019 343e
00000010: 8923 6dbd 7d1f 93be 98a4 b83d d3cc 573e
00000020: 0406 bd3c 39d1 363e fe9b 20bc 467e e53c
00000030: f1ab 93be 43cd 95be 948b 973e afc3 04bd
00000040: 7a51 2dbd c390 15be 71e7 8abe 69d3 7bbd
00000050: c497 723e 0f75 99be 09a0 093e a5a0 9dbe
00000060: b37d 1cbe ce9a 87be 34da 3c3d 5937 bf3c
00000070: e1b0 7d3e d203 173d 8777 95be 5724 80bb
-0.30619246 -0.005261063 -0.23050301 0.17587829 -0.057895217 -0.2873496 0.09015769 0.21074228
0.023074158 0.1785325 -0.009802816 0.028014313 -0.28842118 -0.29258165 0.29598677 -0.03241318
-0.04231403 -0.14606003 -0.271297 -0.061480913 0.23690706 -0.2997212 0.13439955 -0.30786625
-0.15282325 -0.26485294 0.046106532 0.023341822 0.24774505 0.036868878 -0.29192755 -0.003910582

features.1.weight f4 [32]
00000000: 6aec 833f bc00 7f3f 2d4e 803f c4da 803f
00000010: 2397 813f 9be0 803f 1fb8 813f 0874 803f
00000020: 1511 7f3f c384 7e3f f615 7f3f 0e1f 863f
00000030: 12a2 803f 7d4c 813f abf0 7c3f 7127 793f
00000040: b00f 7f3f 0142 7b3f 4a09 7a3f 9e7f 803f
00000050: 3788 773f 8c8b 813f e722 833f 22f6 7c3f
00000060: 8069 7f3f 57bd 803f afbc 7d3f 8903 773f
00000070: 270f 793f f879 7c3f 4743 7a3f af0a 7f3f
1.0306523 0.99610496 1.0023857 1.0066762 1.0124248 1.0068544 1.0134314 1.003541
0.9963544 0.9942133 0.99642885 1.0478227 1.004946 1.0101467 0.9880473 0.9732581
0.9963331 0.9814759 0.97670424 1.0038946 0.9669222 1.0120711 1.0245026 0.9881307
0.99770355 1.0057782 0.99116033 0.9648977 0.97288746 0.9862361 0.9775891 0.99625677

features.1.bias f4 [32]
00000000: 0344 bb3c 2ee7 263d 26be c43c ed1b 6d3b
00000010: a28f d3bc dd20 b5bc d67e 1cbc 2eeb acbb
00000020: 814e 783c 1893 cd3c 8c36 803d 4e4e cf3d
00000030: 5a7e 343d 524e aa3d 25b3 3e3d b4ab ad3b
00000040: 9a04 ad3c 009d 9e3d fbc4 a93c 7c8f 87bc
00000050: f602 003d 8bd2 1d3d 37a8 0e3d ed11 fb3c
00000060: 63dd 28bb 6670 a83c 8f1a 49bc b263 d63b
00000070: 0731 353d 31ed c43b 316f bf3c e516 533d
0.022859579 0.040747814 0.024016451 0.0036179975 -0.025825325 -0.022110397 -0.009551724 -0.005277059
0.015155436 0.025094554 0.06260404 0.10122357 0.04406581 0.0831572 0.046557564 0.0053000096
0.021120358 0.07744789 0.02072381 -0.01654791 0.031252824 0.038530868 0.03482839 0.030648196
-0.0025766722 0.020561408 -0.0122743985 0.0065426463 0.04423621 0.0060097207 0.02336845 0.051535506

features.1.running_mean f4 [32]
00000000: c07f 8cc0 17b0 d640 0dc0 8640 e518 13c0
00000010: 07f8 9dc0 8b60 1a3e 7693 0cc1 c57e 12c0
00000020: 0118 a73f 2e01 47c0 3349 01c0 df74 d6c0
00000030: 1a11 f63e 3407 aec0 2021 57bf 592e e73f
00000040: c01a db40 fef2 a7c0 ee8d c2c0 f30d bbbe
00000050: e6e7 6940 38a4 5bc0 42ee 1ebf bfd2 0ac1
00000060: b52e bb40 95cd 9840 48e4 0ec0 bebe 9440
00000070: 96d9 86bf 06ed 2fbe 5335 5640 2bae b6bf
-4.3905945 6.7089953 4.2109437 -2.2983944 -4.936527 0.1507589 -8.786001 -2.2889874
1.30542 -3.109447 -2.0200927 -6.7017665 0.48059922 -5.4383793 -0.8403492 1.8061019
6.8470154 -5.248412 -6.0798254 -0.3653408 3.654779 -3.431898 -0.620823 -8.676452
5.8494515 4.7750955 -2.2326832 4.648284 -1.0535152 -0.17180261 3.3470047 -1.4271902

features.1.running_var f4 [32]
00000000: f2f7 0244 7c69 0545 80ec 1144 3cf3 c543
00000010: 907f 7645 fbca 1444 c4f3 b644 3f9a 4743
00000020: a2fa ff42 48f2 8144 dc3c 7145 113d e344
00000030: 89e0 6b43 2a86 5245 7e49 1d45 1b96 3944
00000040: 2350 8d44 100a 4c45 80af c044 074c 4e42
00000050: a269 a845 d57a 1f44 aab8 4f42 33ef d044
00000060: c926 6c45 b372 2044 920a 4a44 ff1b a044
00000070: 6583 7e43 d260 8144 8524 8b45 3f5e 9843
523.87415 2134.5928 583.6953 395.90027 3943.9727 595.1716 1463.6177 199.60252
127.98952 1039.5713 3859.8037 1817.9083 235.87709 3368.3853 2516.5933 742.3454
1130.5043 3264.629 1541.4844 51.574245 5389.204 637.91925 51.930336 1671.475
3778.424 641.7922 808.16516 1280.8749 254.51326 1035.0256 4452.565 304.7363

features.4.weight f4 [64, 32, 3, 3]
00000000: 4781 373c ae3c cbbc 7658 0c3d d480 39bd
00000010: 1125 37bd 1bad 423d 8fd9 603d 43e9 033b
00000020: 5185 8d3d e8d9 383d 0647 103b 59d3 c33b
00000030: ad40 fc3c 8f54 7dbc 06a4 20bd c5da 69bc
00000040: a2bb 9f3c 6a21 41bd a574 92bd 79aa 193c
00000050: b717 4abd cfe7 783c 2ac6 2ebc a2fa ebba
00000060: 8af1 88bc 40c0 3fbc e9c4 53bc 967b 0bbb
00000070: 62e7 c8bc 519f b2bc a902 053d 6081 b53c
00000080: e5ed 28bd 8941 93bc 30f1 a03d d2fb 0fbd
00000090: 7b33 41bd ef6a 31bd 4194 e7bb 12ac 86bd
000000a0: 9260 82bd 3e27 de3b 0c51 343d d5d8 263d
000000b0: 9335 febc 76f9 8dbd 32e6 f33c e541 ae3c
000000c0: 400e 473d 661b 60bd 0c1e 203d 5c07 193a
000000d0: 8b63 033d 8a43 4e3d 3590 ac3b b574 313d
000000e0: 93d6 a9bc 287e 7ebc add4 4d3c 2cb9 c9bc
000000f0: fbcc eabc 2bc3 4dbb 488d bbbc 9005 66bd
00000100: 7174 363c 85bb 1cbd 70f8 e8bc 61b3 243a
00000110: be10 31bd 8723 113d b4ec cbbc 8cd7 843d
00000120: 0069 553d 54b0 a03c f67b 3d3d d58d 6f3d
00000130: dea9 f43c dbd5 97bc 0391 69bd 44c3 273d
00000140: 41ec 3e3d 5bda c1bc c6d1 633d bacb 653a
00000150: 8d33 90bd ebe8 0cbd 3db3 1ebd 0c17 ddba
00000160: bd28 0d3c 646e 8b3d b2f8 a8bc 280c 02bd
00000170: 67f2 7f3d 3c53 29bd c493 373c 729a 063c
00000180: 3295 173d dfdd 4c3d e9bf ce3b 8fa1 c73c
00000190: d87f 15bd d5f3 9a3c b4bb 4d3d bd86 febc
000001a0: bec9 0e3c 68d9 543d 799a 0cbc fd5a 823d
000001b0: 2597 6c3c a6dc 10bc efcd 843c 27d6 a1bd
000001c0: 2e14 14bd 8d8d 8ebd de15 75bd cdea 4dbd
000001d0: c335 6d3d f9c1 983c 849a eabc 3606 a53c
000001e0: ee60 38bd bf07 183d ba9c 1c3c aad6 943d
000001f0: 76c7 98bb 7d67 08bd 7747 83ba 68c8 61bd
00000200: 68df 103d 3c7d 44bd ad4d 16bd 35f4 b7bb
00000210: de8d ccbc 2372 0dbd 3892 fa3c 7a60 143d
00000220: a2be 27bd 85de bfbc 0bb2 2fbd 7a2a 3fbd
00000230: c4f9 1dbd a2e4 0c3d 6099 1ebd 7efd 96bd
00000240: e3e7 13bd 0324 0f3d 888a 91bb cc49 cdbc
00000250: 46ab aa3c 893b 26bd f96b 78bc 2536 4cbd
00000260: 6a81 fabc f624 0c3d 82ac 8eba 4d54 57bd
00000270: 17af 8b3c 0762 41bd 2db9 1cbd dbd6 b43b
00000280: 2ddf 2e3d 1edb d9bc f72c 27bd 82ff 8fbc
00000290: 5e75 1bbd d014 42bd 49c0 243d 160f c73b
000002a0: bf2a 113d b808 4bbd 0b9e 18bd 8dea 0e3d
000002b0: 0ad1 5b3c 139e 423d 693b 1c3b 73c4 8a3d
000002c0: 961b 353b 0404 8c3d 03ed 4b3c dd19 5abd
000002d0: 82ee 59bd b890 023d ea91 bd3c c5de 07bd
000002e0: a8f8 89bd 16cd 1b3d 8ffe b4ba 17e0 f03c
000002f0: 29c8 363c 6ba0 493c 0040 643d 105f 5a3d
00000300: c70b a4bc d725 563d 500c 1c3d ab52 1a3d
00000310: bc47 7a3c c8eb 1dbc 3c7b 1d3d 5ac9 d73c
00000320: 7244 723a 0b0d 003c 0220 e4bc ff52 e0bc
00000330: 936f 6ebc 66be 473b a49e 0ebd 58a8 2739
00000340: c0fb d63c 43e6 603c 5e36 7cbc b9f4 bf3c
00000350: 6739 82bc 487a c63c efea 723d f6e3 e0bc
00000360: fe94 82b9 7b27 593c e005 293d 4dec 5bbc
00000370: d603 dd3c a12d 873c 0dfc 98bd 1712 ae3b
00000380: 31f9 1e3d bd6c 01bd d178 043d afe0 aabc
00000390: acc8 1cbd 2d39 9bbc b954 8dbb 45e3 4ebd
000003a0: 6811 833c db43 fc3c 8c83 1cbd a3c2 cdba
000003b0: 24d8 cebb 9397 4f3d 1df0 cbbc 5133 393d
000003c0: d4b1 c43c fe85 eebc a8e1 283c ab98 2b3d
000003d0: 7a67 d5bc 8095 123d f48a 263d b1da 3fbd
000003e0: f094 3cbd 98aa 143d 20b9 a53c 944f baba
000003f0: f346 20bc da57 23bd bf65 723d d69f e0bc
0.011200256 -0.024809208 0.03426405 -0.045288876 -0.044713084 0.047528367 0.05489498 0.0020128048
0.06910194 0.045129687 0.002201499 0.0059761223 0.030792559 -0.015462055 -0.039218925 -0.01427335
0.01949865 -0.047151007 -0.071511544 0.009379023 -0.049339022 0.015191986 -0.010667363 -0.0018003772
-0.016716737 -0.011703551 -0.012925365 -0.002128338 -0.024524394 -0.021804484 0.03247324 0.022156417
-0.0412425 -0.017975586 0.07858503 -0.035152264 -0.047168236 -0.04331487 -0.007067234 -0.065757886
-0.063660756 0.0067795804 0.044022605 0.04073413 -0.031031406 -0.069323465 0.029772852 0.021271655
0.048597574 -0.05471363 0.039091155 0.00058375834 0.032077353 0.05035738 0.0052662143 0.04332419
-0.0207322 -0.015533008 0.012562913 -0.02462443 -0.028662195 -0.0031396847 -0.022894517 -0.05615765
0.01113616 -0.03826477 -0.028438777 0.0006282833 -0.043228857 0.035434272 -0.024893142 0.06486425
0.05210209 0.01961533 0.046260796 0.05848487 0.029866155 -0.018534591 -0.05702306 0.040957704
0.046612028 -0.02366369 0.055619977 0.00087660144 -0.070410825 -0.034401815 -0.038745154 -0.001686783
0.00861567 0.06808165 -0.0206264 -0.031749874 0.062487032 -0.041339144 0.011204664 0.008215534
0.037007518 0.05001628 0.0063094986 0.02436903 -0.036498874 0.018915096 0.050227836 -0.031070108
0.008715091 0.051965147 -0.008581751 0.06365011 0.014440333 -0.008841669 0.016211478 -0.079021744
-0.036152057 -0.069605924 -0.059835307 -0.05027275 0.0579126 0.01864718 -0.028638132 0.020144563
-0.045014314 0.037116762 0.009558851 0.072675064 -0.0046624495 -0.03330182 -0.0010015805 -0.055122763
0.035369307 -0.047970995 -0.03669517 -0.0056138285 -0.024969991 -0.034532677 0.0305873 0.03622482
-0.040953286 -0.023421535 -0.042894404 -0.04667137 -0.038568273 0.03439773 -0.03872049 -0.073725685
-0.036109816 0.034946453 -0.004441563 -0.025059603 0.020833623 -0.04058412 -0.015162461 -0.049856324
-0.030579288 0.034214936 -0.0010885152 -0.05257063 0.017051263 -0.047212627 -0.038262535 0.005518777
0.042693306 -0.026593741 -0.040814366 -0.01757789 -0.037953727 -0.04738313 0.04022244 0.0060747964
0.035441156 -0.04956886 -0.037260097 0.034891654 0.013416538 0.047514033 0.0023839122 0.06775751
0.002763485 0.068367034 0.012446645 -0.05324732 -0.053205974 0.031876296 0.023140866 -0.033171434
-0.067368805 0.038037382 -0.0013808775 0.02940373 0.01115612 0.012306313 0.055725098 0.053313315
-0.020025147 0.05228218 0.03809768 0.037676495 0.015275892 -0.009638734 0.038447604 0.02634113
0.00092417665 0.00781561 -0.027847294 -0.027383326 -0.014552969 0.0030478477 -0.03481926 0.00015989074
0.02624309 0.013726774 -0.0153938215 0.023432123 -0.015896512 0.02422823 0.05930608 -0.02745245
-0.0002490654 0.013254042 0.04126537 -0.013423038 0.026979368 0.01650125 -0.0746995 0.005312215
0.038811866 -0.03159784 0.032341782 -0.02085909 -0.038277313 -0.018948162 -0.0043130782 -0.05050971
0.01599951 0.030794075 -0.03821139 -0.0015698265 -0.006312387 0.05068166 -0.024894768 0.045214955
0.024010576 -0.029116627 0.010307707 0.041893642 -0.026050318 0.035787106 0.04065986 -0.04683942
-0.046040475 0.036295503 0.020229876 -0.001421439 -0.009782541 -0.039878704 0.059179064 -0.027419966

features.4.bias f4 [64]
00000000: 36a8 073b 5bca 5abd 2cb5 4bbc a253 bdbc
00000010: ffb2 21bd 4318 383d b8f1 0e3c 1359 433d
00000020: a52d 89bc 2b89 83bb a0ba 6f3c 86ee 1a3d
00000030: 2610 fc3c f717 ecbc c640 9dbb ccad d93c
00000040: ff5c 1f3d 9e29 bb3c 0615 24bb 9791 d1bc
00000050: d9d6 35bd e170 ecbc 675f 3fbd 7b2a 2d3d
00000060: 45b5 22bd 7f97 68bd 256f b0bc d1a8 49bd
00000070: bf7f 473d 0639 31bd 3c81 73bd 5233 3d3d
00000080: 756e febc 22f4 4cb8 f6df 683b e9a4 133d
00000090: 0ee1 62bd 7719 bf3b 357d 60bd 9e1d 43bd
000000a0: 529b 1cbb 982e 2cbd a777 7e3d e7fc f83c
000000b0: e630 70bd aa86 a53c 4d86 17bc a222 d13c
000000c0: 02eb 88bc 0401 533d a84e 303d 1e76 51bd
000000d0: 89f6 873c bac0 7cbc af67 33bc bcdb ee3c
000000e0: d745 693d a3da 3ebb df33 aabc 14c9 d2bc
000000f0: 8b6e e23c bd69 1b3d 4fb3 0dbd 64d8 1a3d
0.0020699627 -0.053415637 -0.012433331 -0.023111168 -0.039477345 0.044945013 0.008724622 0.04769237
-0.016745398 -0.0040141544 0.014631897 0.03782513 0.030769419 -0.028820021 -0.0047989814 0.02657213
0.038907047 0.022846993 -0.0025036945 -0.025582118 -0.044394348 -0.028862419 -0.046721842 0.04227684
-0.039723653 -0.056785103 -0.021537373 -0.04923326 0.048705813 -0.043267272 -0.05944942 0.04619152
-0.03105853 -4.8864757e-05 0.0035533882 0.036045942 -0.05539041 0.005831893 -0.054806907 -0.047635667
-0.002389629 -0.042036623 0.062125828 0.03039403 -0.058640383 0.020205814 -0.009248328 0.02552921
-0.016713623 0.05151464 0.043043762 -0.051138036 0.01659705 -0.015426809 -0.010950013 0.029157512
0.05695137 -0.0029122017 -0.020776687 -0.025730647 0.027640602 0.037942637 -0.03459483 0.037804022

features.5.weight f4 [64]
00000000: 6b6e 7e3f f0b7 7a3f b4da 7b3f 7273 833f
00000010: e798 7e3f f866 813f 94ba 863f bf1d 7d3f
00000020: 4918 7b3f 0895 793f 1a9f 803f be77 773f
00000030: 867d 873f dc6a 803f 492f 783f 6799 793f
00000040: c84e 823f acaa 803f 18bd 7f3f c7ad 7f3f
00000050: 4434 813f 5015 753f 5a59 873f b106 7f3f
00000060: b2c1 803f 25af 823f 13d7 7a3f ac44 853f
00000070: bfbc 773f a093 733f 3268 743f ed2e 7b3f
00000080: d86a 743f 91a8 7f3f f085 7b3f 9b6c 7e3f
00000090: 4980 753f 2c88 803f 17c4 773f ff3b 733f
000000a0: 2ba8 7e3f b2c7 7d3f cc1b 7c3f b256 833f
000000b0: 2d0c 823f e804 833f ffda 713f 92fe 783f
000000c0: b62b 7b3f 73e2 7c3f e02d 783f 7833 763f
000000d0: 3a51 823f 93d4 823f 45bd 7a3f 6749 753f
000000e0: 4e01 7c3f 5ec8 6f3f 6619 7c3f 33bb 853f
000000f0: 3a3a 6f3f bc86 7a3f eea2 823f b02e 803f
0.99387234 0.97936916 0.9838059 1.0269606 0.9945206 1.0109549 1.0525689 0.98873514
0.9808393 0.9749303 1.0048554 0.9666709 1.0585182 1.0032611 0.9694715 0.974997
1.0180292 1.0052085 0.9989791 0.9987454 1.0094075 0.95735645 1.0574143 0.99619585
1.0059111 1.02097 0.9798443 1.0411582 0.9677238 0.9514713 0.9547149 0.9811848
0.9547553 0.99866587 0.9825125 0.9938447 0.9589887 1.0041556 0.96783584 0.9501342
0.99475354 0.99132836 0.98479915 1.0260832 1.0159966 1.0235872 0.94474787 0.97263443
0.9811357 0.98783034 0.96945 0.96172285 1.0181038 1.0221123 0.9794505 0.9581513
0.9843949 0.9366511 0.98476255 1.0447754 0.9344822 0.9786184 1.0205972 1.0014248

features.5.bias f4 [64]
00000000: a615 103c 205f 10bd afef afbc 44bf 04bd
00000010: 693a 31bd 9b31 d2bc 818d 273c fc3b 04bd
00000020: 845e c4bc 6555 1aba 61f5 72bb 52d1 f53b
00000030: fb2d c03b e83a d83b fa67 82bb 54f8 c0bc
00000040: 9042 8dbc 3e52 b9bc 6bcf 06bd 22b8 22bc
00000050: 98ce 7cbd ce58 1cbc bab5 57bc 25fd debc
00000060: 5d90 0ebc b434 63bc c9cc 733c bec4 72bd
00000070: d0ea 02bc b2ca 22bd ff02 01bd dabe 91bc
00000080: 5dd7 05bd e49f 713a 69a4 3fbc 4332 453b
00000090: 278d 66bd 1cac 99bc 9252 12bd 8091 bfbc
000000a0: 6d9a 99bc 5286 56bc 8a28 88bc c322 063d
000000b0: 5c77 dd3c 67c1 f7bb f267 ebbc d2bd 49bd
000000c0: 137f 76bb 4fff 163c b2bc 18bd 53c0 35bc
000000d0: 6e0f 543c 4897 ab3a 2fac 25bd d2a8 44bd
000000e0: cbd6 583c ac58 70bd 191a 663a a098 6dbd
000000f0: c050 50bd 6aaa 79bc 1068 a33b 84d9 8c3c
0.008794224 -0.03524697 -0.021476595 -0.032408968 -0.043268595 -0.02565842 0.010226608 -0.032283768
-0.02397085 -0.00058873586 -0.0037072527 0.0075017596 0.0058648563 0.006598819 -0.00397968 -0.023555912
-0.017243654 -0.022622224 -0.032912653 -0.009931596 -0.06172046 -0.009542657 -0.013165886 -0.027220318
-0.008701411 -0.013867546 0.014880368 -0.05926966 -0.007990554 -0.039744087 -0.031496998 -0.0177912
-0.03267609 0.0009217246 -0.011696913 0.0030089773 -0.056286957 -0.018758826 -0.035723276 -0.02338481
-0.018750394 -0.013093548 -0.016620893 0.032747995 0.027034454 -0.007560897 -0.028736088 -0.049253292
-0.0037612363 0.009216144 -0.03728933 -0.011093217 0.012943132 0.001309135 -0.04044741 -0.048012562
0.013234804 -0.058678314 0.00087776926 -0.058006883 -0.05085826 -0.015238384 0.0049867705 0.017193563

features.5.running_mean f4 [64]
00000000: 44af 79be d14f dfbe 39be 34bf d7fb f2be
00000010: c611 c7bf f54a 40bf 3523 a9be 3be8 5a3f
00000020: a133 7abf 887f a3be 674f 00bf 0b0c 04be
00000030: f787 aabd ecfe dabe ad2c 3dbf 8b6e b0be
00000040: 634a aebe 624a 0b3f e3b9 d1be 2f95 54be
00000050: 3500 79bf 68ce bbbe 560b d2be fd73 5dbf
00000060: e7a9 f9be 6fc9 fcbe 59f9 9cbe 7736 a9bf
00000070: c563 07bf 41ed bc3e 5296 6a3f 7741 b93d
00000080: 7ca6 733f a154 f1be 0cf0 c4be ce19 18bf
00000090: 64fd 8fbf 8f4e 0abf 984c 5abf f705 a3bf
000000a0: ab0e 5b3e 074b 7abe 9795 adbe 3a3e 50bf
000000b0: 633f 2bbf 3132 3bbf 2adc 783f b5b8 6c3f
000000c0: 362b 95be eea9 b2be e755 01bf c28c 48bf
000000d0: 4773 fdbe 3362 0d3f 786e 2dbf e56d 25bf
000000e0: 06dc e8be 5a17 8f3f 5a06 67bf e37f 97bf
000000f0: 3ed0 6b3f 204b f7be abaa 673e 48ee adbe
-0.24383265 -0.43615583 -0.70602757 -0.47457764 -1.5552299 -0.75114375 -0.33034673 0.85510606
-0.9773503 -0.31933236 -0.5012116 -0.12895219 -0.083267145 -0.42772615 -0.73896295 -0.34459338
-0.34041128 0.54410374 -0.40962133 -0.20760034 -0.9726594 -0.36680913 -0.41024274 -0.8650511
-0.48762438 -0.49372432 -0.30658987 -1.3219746 -0.5288661 0.3689976 0.9163562 0.090456896
0.9517591 -0.4713488 -0.3846439 -0.59414375 -1.1249204 -0.5402612 -0.8527312 -1.2736195
0.21392314 -0.24442683 -0.3390319 -0.8134495 -0.66893595 -0.7312346 0.97210944 0.9246934
-0.2913453 -0.3489527 -0.505217 -0.7833978 -0.49502012 0.55227965 -0.67746687 -0.6462081
-0.45480365 1.1179001 -0.90244067 -1.1835903 0.9211463 -0.48299503 0.22623698 -0.33970857

features.5.running_var f4 [64]
00000000: a82a e13e 1dd5 353f 459e 923f 3f9e 313f
00000010: 4bb1 f93f 40cb 183f 0b43 013f 3b29 8e3f
00000020: ffd3 eb3f e562 da3f f385 613f 1197 103f
00000030: 81ec 983e 930d ba3f 3ecd 0140 963c 2940
00000040: d09a 413f 6a4f 223f 5125 7a3f 98ef c33e
00000050: 472f 433f 3eac ab3f 27fc 403f 1c2a be3f
00000060: f428 a53e 9d49 2c3f 0856 8d3f f222 8b3f
00000070: 82fe 5540 4b17 ae3f f03d d83f f51c ad3f
00000080: dce9 9e3f b64b 333f 2ea6 9b3f fe36 9f3f
00000090: f0ba 0540 73fc 753f 0c5e e83f a3e8 4a40
000000a0: 9b93 193f fcdd 1e3f 3603 ff3f ac07 833f
000000b0: e2a1 2d3f 89a5 aa3f 2772 b63f 9d7b 863f
000000c0: b5a7 bb3f d71b 0740 b1b8 4f3f 29e8 3240
000000d0: 9c95 1d3f 4f59 263f 635e c53f 4c01 de3f
000000e0: 13cd 213f fdb5 9e3f 75d9 9b3f f15a 683f
000000f0: 6291 9f3f 2288 1440 6c65 8e3e bece 833f
0.43977857 0.7102831 1.145455 0.6938209 1.950723 0.59685135 0.50492924 1.1106333
1.8424071 1.706143 0.88095015 0.5648051 0.29867938 1.4535393 2.028152 2.6443229
0.7562685 0.63402426 0.9771319 0.38268733 0.76244015 1.3411939 0.75384754 1.4856601
0.32257807 0.67299825 1.104188 1.087004 3.343659 1.3600858 1.6893902 1.3524462
1.2415118 0.700374 1.2160089 1.2438657 2.0895348 0.9608833 1.8153701 3.170449
0.59990853 0.6205747 1.9922855 1.0236716 0.6782514 1.3331767 1.4253587 1.0506474
1.4660555 2.1110742 0.8114119 2.79542 0.6155641 0.64980024 1.541943 1.7344146
0.63203543 1.2399288 1.2175738 0.90763766 1.2466242 2.320809 0.27811754 1.0297468

features.8.weight f4 [128, 64, 3, 3]
00000000: b15e 9fbc 2abf f2bc 4eff 90bc 3291 17bd
00000010: ee26 cbbc 0a1e 5cbb 45c8 d93c ecad 7bbb
00000020: 9628 c3bc 028d e03b e381 d5bb f766 a23c
00000030: f368 29bd cc6a 63bc 611d 2dbd 7216 69b7
00000040: f10c be3c 9d45 e5bc 5ed6 b0bc aa26 39bc
00000050: b72e 8ebc 3b89 8bbc e0b8 553b 1a6f aabb
00000060: cd38 a6bc f2a7 48bd 65da 473c 9b42 2abd
00000070: 8428 debc aa60 003d 0c17 96bb 4a5c fabc
00000080: 5f99 4dbc 9aa9 6bbd 19d7 9abd 8660 0abd
00000090: cd41 463d 5f1c 84bb 5320 fa3b 9eb2 383d
000000a0: 35f5 8f3b 056d 98bb 35a2 1b3d 36dc d83a
000000b0: 76ec 613d e807 053d 9b52 073d ec30 3b3d
000000c0: f125 dd3b 5ff6 453c 3e29 53bb 229f 0b3d
000000d0: 16d6 c73c 41a4 83bc af03 163d 74af f93a
000000e0: a52c f23b ad42 25bc bad2 15bd 9a0a 483c
000000f0: c8ca 93bd 9832 42bb 6501 5ebd 40f8 a73c
00000100: c900 1d3d 15b3 18bc b5c1 733d 4302 143d
00000110: 3c64 f83b f4d5 6a3d 9db2 283d 4087 3d3d
00000120: ea67 4a3c 4347 553c f414 9d3c 0b25 34bc
00000130: 2278 a0ba 8382 df3c a3d5 8c3c aeec 9f3a
00000140: c637 b13b d426 a43b 15ca 06bc 47b2 4fbd
00000150: 8c81 063d ce02 6cbc 360e 2bbb e8be 4c3a
00000160: 29dc 3b3c e60a 9b3d 3b74 16bd 69a3 8a3c
00000170: e946 10bd 4499 51bc 2308 c03c c3f7 38bd
00000180: 67e8 bebb e593 03bd 9dfc 40bd 6be2 98bb
00000190: bde9 53bd e040 9cbc 757e f8bc 1e4e 9abc
000001a0: 46a8 e3b9 6d00 143d f52c 223d 9fae d5ba
000001b0: 1775 41bd d07d afbc 18fe fbbc 41b2 593c
000001c0: 23b8 ccbb a998 8dbd 2e07 00bd ee27 32bd
000001d0: 6a2d 1abd 2aa5 03bd 359c 75bd 1f41 bdba
000001e0: d568 4c3c 1550 ff3c 4ac1 133c e6a7 523d
000001f0: ffea 423d 3c3b 4d3d 898b c9bb da5c 693d
00000200: 2281 cc3c 30b4 0fbc b32b e73c 126f f3bc
00000210: 55a9 14bd 8632 213d f13a 9c3b 00c1 7cba
00000220: a909 3fbd 369e d7bc 116d 35bc 792a be3c
00000230: df2d 7bbc e259 90bc 6746 f03b 1084 e83c
00000240: d651 033b 99c8 06bd 51e2 573c 9842 7dbc
00000250: 122d 7abc a167 3fbd 7d32 0fbc 13ea 0cbd
00000260: f2f7 1cbd 6e90 bb3c bef0 183d 134c 9a3c
00000270: 0804 ac3c 2e92 eebb 481f 293d 5618 d13c
00000280: fb0d 6f3d edab b43d 23c6 d7bb eeb9 e73c
00000290: 219b 3bbd dc73 ddbc 8817 0bbc cedf 90bd
000002a0: 1af8 7bba 0716 693c 2c93 20bc fa06 86bc
000002b0: 78ab 8bbc 3554 eebc 988d 9b3c 0d03 80bc
000002c0: 023f fbbc ce46 8e3d 4581 123c 5d53 273d
000002d0: f291 8d3d c52d 7c3d cd22 e43c f58c 603d
000002e0: a314 42bc ecd2 bc3c 3513 2c3d 99ad 813c
000002f0: 740e ee3c f2ef f63b c50a 90bc 6ea8 98ba
00000300: 511b c83c 10b4 ed3c ee50 e8bc 9797 223c
00000310: 2ab4 68bc 3cb8 5fbb dbef cf3c c459 ff3c
00000320: 49d3 dabc 5d96 12bd f74f 81bc 094b 053c
00000330: d862 c4bc ad95 4abc 3853 78bd 5130 2fbb
00000340: ba8f f3bb a623 9dbc 8abf 313c 5877 273d
00000350: 1c91 54bb 9ca6 b33b 6736 d13c eaaf 393d
00000360: 389f a2bc 0963 dc3c da63 d03b 140f 93bc
00000370: 8033 b53c 5561 8abc 5b01 b73d 9e80 3c3d
00000380: d0ca c03d c89f 2abd d0a4 d43b 8608 c1bc
00000390: 099b b8bc 3615 12bd 77e1 2abd b82a 6ebd
000003a0: f41b 91bb ae5c 5dbc a04e 99bc d43a 41bd
000003b0: cc0f d23b 51a5 2dbd f877 3ebd 7501 f1bc
000003c0: 0f83 2d3a 661c 13bd 71f8 433c e1aa 9a3c
000003d0: fe6a 693d 4452 ae3d e857 443d 2783 493c
000003e0: efdb 4a3d 1e1e 7a3d b6fd 813c c538 d93c
000003f0: 95b5 063d 56ec 0abd 23db 293b c3d8 8cba
-0.019454332 -0.02963217 -0.017699864 -0.037003703 -0.024798837 -0.003358724 0.026584754 -0.0038403226
-0.023823064 0.006852747 -0.006515728 0.019824488 -0.041359853 -0.013880443 -0.042264346 -1.3893108e-05
0.02319953 -0.027987296 -0.021586593 -0.011300722 -0.01735626 -0.01703321 0.0032611415 -0.0052012326
-0.020290757 -0.04898829 0.012198065 -0.041567426 -0.027118929 0.031342186 -0.004580384 -0.030561585
-0.012548774 -0.05753479 -0.07560558 -0.03378346 0.048402596 -0.0040317024 0.007633248 0.045092218
0.0043932446 -0.004651668 0.03799649 0.001654512 0.055157147 0.032478243 0.033037763 0.045700952
0.0067489077 0.012082665 -0.0032220627 0.034087308 0.024394076 -0.016069533 0.036624607 0.0019049481
0.007390576 -0.0100866975 -0.036577918 0.012209559 -0.07216412 -0.0029632207 -0.05420055 0.020504117
0.038330827 -0.00932004 0.059510905 0.03613497 0.0075803082 0.057332948 0.041185964 0.046271563
0.012353877 0.013017478 0.01917503 -0.01099516 -0.0012242834 0.027283913 0.017191714 0.0012201273
0.00540826 0.0050095115 -0.008226891 -0.050707128 0.03283839 -0.014404966 -0.0026101 0.00078104297
0.0114660645 0.07570438 -0.03673194 0.016923623 -0.035223875 -0.012792889 0.02344138 -0.04515816
-0.0058260444 -0.032123465 -0.04711591 -0.004665663 -0.051736582 -0.019073904 -0.030333737 -0.018836077
-0.00043422187 0.03613322 0.039593656 -0.0016302651 -0.047230806 -0.021422297 -0.03076081 0.013287128
-0.0062475367 -0.06913883 -0.031256847 -0.04349511 -0.037640966 -0.032139935 -0.059963424 -0.0014438963
0.012476166 0.031166116 0.009018252 0.05142965 0.04758739 0.05010532 -0.006150667 0.056973316
0.02496392 -0.008770987 0.02821908 -0.029716048 -0.0362943 0.039354824 0.0047677686 -0.00096417964
-0.046640072 -0.026320558 -0.011073367 0.023213612 -0.015330761 -0.017620984 0.0073326114 0.028383285
0.0020037792 -0.03290615 0.013176517 -0.015457772 -0.015269535 -0.046729688 -0.008740065 -0.034402918
-0.038322397 0.022896018 0.037338965 0.018835103 0.020998016 -0.0072806096 0.041289598 0.0255243
0.058362942 0.08821855 -0.006584899 0.0282869 -0.04580224 -0.027032785 -0.008489497 -0.07073937
-0.000961186 0.014226443 -0.0098007135 -0.016360749 -0.017049536 -0.029092887 0.018988416 -0.015626455
-0.030669693 0.06947099 0.008941953 0.040850986 0.069126025 0.061567087 0.027848626 0.054821927
-0.0118457405 0.023049794 0.042010505 0.015829848 0.029059626 0.007535928 -0.01758326 -0.0011646876
0.024427088 0.029016525 -0.028358903 0.009923837 -0.014203111 -0.0034136912 0.025382927 0.031170733
-0.026712077 -0.03578793 -0.0157852 0.008135566 -0.023972914 -0.012364787 -0.06062624 -0.002673168
-0.007432905 -0.019182038 0.010848889 0.0408853 -0.0032435125 0.005482508 0.025538636 0.04533378
-0.019851312 0.026902692 0.0063595595 -0.017951526 0.022119284 -0.016892115 0.089358054 0.046021096
0.094136834 -0.041656286 0.0064893737 -0.023563635 -0.022534864 -0.03566476 -0.041718926 -0.05814621
-0.004428381 -0.013510866 -0.01871425 -0.047175243 0.0064105745 -0.042393986 -0.04650113 -0.02941964
0.00066189555 -0.035915755 0.0119610885 0.01888031 0.0569868 0.08511785 0.047935396 0.012299336
0.04952615 0.06106388 0.01586805 0.026516328 0.032888014 -0.033916794 0.002591797 -0.0010745752

features.8.bias f4 [128]
00000000: 1f08 0f3b bc4e ef3c fdfe 9fbb c2dd 0a3c
00000010: 04ac 063c 3e91 733c 3e5d 723c 9f3a 1e3d
00000020: 6f15 96bc 7a67 b7bb 3327 d9bc 9e9e e6bc
00000030: 0d5e f4bc f156 0ebd 5aa4 c03c 73fc fdbb
00000040: 71fb f03c 56b3 d73c 389c 06bd 9acd b6bc
00000050: 9b46 b9bc 1517 f93c 82a5 033c 6a89 12bd
00000060: 2353 f73c c929 85ba b108 24bc c2bc 4f39
00000070: 3f46 143d c6eb 7d3a 533d 08bd 1149 1c3d
00000080: 9279 11bd b89f 07bc 9903 e0bc 3d93 44bc
00000090: 1cba 113c 67b8 d03c 2574 d7bc 12ae e0bc
000000a0: fcfb 433c 10fd 9a3b ac53 1cbc eb02 153d
000000b0: 9ac4 09bb f01d bf3c 080a 013d e364 373c
000000c0: 142f b83c 09d1 1b3d 39c3 b73b d6f9 37bb
000000d0: fb00 6ebc 4de1 cb3c d8ce cbbc f05b b83b
000000e0: 085d 1cbd d898 913a 9724 31bc 8524 d6bb
000000f0: dbf4 01bd e8a1 ef3c faf8 2e3d ef33 523c
00000100: 3933 0a3d 1647 a43c 6edc 273c e5a8 c63b
00000110: 2a05 22bd 7827 153d e78c 913c a617 793c
00000120: 0205 68bc 713d 1dbd db78 ea3c b435 eaba
00000130: 743d c13c 5477 63bc a6e5 523c 25b6 1d3d
00000140: 387b 68bb e7ef bc3b 1984 89bc d14e 7f3c
00000150: c373 cdbc 7c75 013d f086 f9bc 6ea6 d4bc
00000160: e877 28bc db34 09bb 21ed 1cbd b5ba 1bbd
00000170: 6ebe a7bc 02a1 873b e4e0 a43c 9d61 d33c
00000180: ee1d 133d 29fb aa3b 3600 253d bbdb e0bb
00000190: 5072 f0bc 3a08 fbbc 5b8d 123d 183a cc3a
000001a0: 7b53 9dba 2357 02bd 303a 873c ac48 18bc
000001b0: 36eb ea3c ca1b c43c 4929 7e3c 5fbb fcbc
000001c0: f12a 1cbd 2398 ae3c ba03 993c ff15 123d
000001d0: 5ec5 f43c a0ad 263d ded5 043d 272d e4bc
000001e0: 3590 283c aa39 25bd 15a9 a23c fada 3d3c
000001f0: 8113 553c c55f bc3c 41d0 b5bc 13e0 613a
0.002182491 0.029212348 -0.004882692 0.008475723 0.008219723 0.014866171 0.0147927385 0.038630124
-0.018320767 -0.005597052 -0.02650795 -0.028151806 -0.029830003 -0.034750883 0.023515869 -0.0077510416
0.029416772 0.026330631 -0.032863826 -0.022314835 -0.022616675 0.030406514 0.008035066 -0.03577558
0.03019101 -0.0010159548 -0.010011838 0.00019811376 0.036199804 0.0009686317 -0.03326161 0.03815562
-0.03551633 -0.008277826 -0.027345465 -0.011997995 0.00889447 0.025478555 -0.0263005 -0.027426753
0.011961933 0.0047298744 -0.009541433 0.036379736 -0.0021021725 0.023329705 0.031503707 0.011193487
0.022483386 0.03804115 0.005607989 -0.0028072498 -0.014526601 0.024887705 -0.024878904 0.005626194
-0.03817466 0.0011108173 -0.010811946 -0.006535115 -0.031727653 0.029252008 0.04271791 0.012829765
0.033740256 0.020053428 0.010245426 0.0060626143 -0.039555706 0.036414593 0.017767383 0.015203392
-0.01416135 -0.038388673 0.028622082 -0.0017868788 0.023588873 -0.0138834305 0.012872135 0.038503785
-0.0035473835 0.0057659033 -0.016786622 0.015582756 -0.025079614 0.031606182 -0.030459851 -0.025958266
-0.010282494 -0.0020936045 -0.03831208 -0.038019855 -0.020476546 0.0041390667 0.020126767 0.025803382
0.035917215 0.005217929 0.040283404 -0.0068621314 -0.029351383 -0.030643571 0.03577934 0.0015581278
-0.0012003029 -0.03182138 0.016507238 -0.00929467 0.02867661 0.023939032 0.015512773 -0.030851064
-0.03812689 0.021312779 0.018678535 0.03566551 0.029879268 0.040692925 0.032430522 -0.027853562
0.010288288 -0.040338196 0.019856015 0.011587853 0.013005138 0.022994885 -0.02219403 0.00086164585

features.9.weight f4 [128]
00000000: 33f2 8b3f af28 893f fe35 873f e867 863f
00000010: 1829 8a3f a387 893f 603e 863f c289 8a3f
00000020: beb7 863f 203f 8a3f 767d 853f 4e58 863f
00000030: 9e2f 863f edc8 863f 80c9 883f 5c06 893f
00000040: 71c4 8b3f 32e6 853f 0024 883f cd96 873f
00000050: 2064 833f d7a3 863f 06de 863f 69a1 8c3f
00000060: 74ce 893f 0809 893f c97a 843f 0706 863f
00000070: e569 883f 51ba 893f 98d4 853f 6557 8d3f
00000080: 3e17 873f 486c 8a3f d8d7 893f e3a7 8c3f
00000090: 01a2 853f f0b1 8c3f 5507 863f 61e6 863f
000000a0: 8e0e 873f 4e02 8a3f 67e5 893f 6249 863f
000000b0: 9775 863f 37a3 883f 0d6c 863f 1a71 873f
000000c0: bed6 893f 3ef2 883f f3cd 853f c5af 8a3f
000000d0: 789b 8c3f fdde 843f 0175 8c3f d8a2 813f
000000e0: 2e2e 893f 8678 8c3f 31f3 863f 5045 8b3f
000000f0: d9bb 883f ddd9 883f 44b2 843f 96b9 863f
00000100: c8b2 863f d940 893f fe3f 863f 50ad 853f
00000110: 51b1 883f e55b 8a3f e6bb 863f 1811 863f
00000120: d01a 8b3f 5bcf 863f 37d3 8c3f 9fef 8b3f
00000130: e155 8a3f 5959 8b3f 5ed7 873f 1b3f 853f
00000140: 5310 863f 4c55 883f 4159 8c3f cbc0 883f
00000150: 7571 8b3f 3541 873f a6c0 883f ce2a 8a3f
00000160: 0334 843f f5e3 893f bbe2 863f ad7d 863f
00000170: 5119 843f 6502 8c3f a0af 893f c837 8b3f
00000180: 9bc2 863f e3d6 853f 8861 8a3f 6ea5 8a3f
00000190: b9c7 8a3f 9c8f 893f 6fb6 883f c08a 893f
000001a0: 34ea 873f 56b1 863f de68 8a3f 8840 8a3f
000001b0: 7abb 8b3f 725d 8b3f ab7c 893f 3557 8b3f
000001c0: 6f1f 853f 6e4a 883f 3b64 8c3f b5af 863f
000001d0: ad93 893f 6324 893f 45cb 853f 20de 8a3f
000001e0: 6bed 883f da36 893f 96f1 8a3f 1deb 883f
000001f0: 0b71 873f e4cc 893f 5597 8b3f 58cc 893f
1.0933288 1.0715541 1.0563352 1.050046 1.0793791 1.0744518 1.0487785 1.082329
1.0524824 1.0800514 1.0428913 1.0495698 1.0483282 1.0530068 1.0686493 1.0705066
1.0919324 1.0460875 1.0635986 1.0592896 1.0264931 1.051875 1.0536506 1.0986758
1.076613 1.0705881 1.0349971 1.0470589 1.0657316 1.0759984 1.0455503 1.1042296
1.0553968 1.0814295 1.0768995 1.0988735 1.0440065 1.0991802 1.0470988 1.0539056
1.0551317 1.0781953 1.0773133 1.0491145 1.0504636 1.0674809 1.0501724 1.0581391
1.0768659 1.0698926 1.0453476 1.0834891 1.0984945 1.0380551 1.0973207 1.0127821
1.0717218 1.0974281 1.0542966 1.0880527 1.0682327 1.0691487 1.0366902 1.0525386
1.052331 1.0722915 1.0488279 1.0443516 1.0679113 1.0809294 1.0526092 1.0473967
1.0867558 1.053203 1.1001958 1.0932502 1.0807458 1.0886642 1.06126 1.0409883
1.0473732 1.065103 1.0964738 1.0683836 1.0893999 1.0566775 1.0683792 1.0794313
1.0328373 1.0772692 1.0537943 1.0507103 1.0320226 1.0938231 1.0756721 1.0876398
1.0528139 1.0456203 1.0811014 1.0831735 1.08422 1.0746951 1.0680674 1.0745468
1.0618348 1.0522869 1.0813253 1.0800943 1.0916588 1.0887892 1.0741171 1.0885988
1.0400218 1.0647714 1.0968088 1.0522372 1.0748192 1.0714229 1.0452658 1.0849037
1.0697454 1.0719864 1.0854976 1.0696751 1.0581373 1.0765653 1.0905558 1.0765486

features.9.bias f4 [128]
00000000: f517 473d 3b72 413d a002 b03c 3cd0 c73c
00000010: dcf2 3f3d 1f2b 4d3d 699f fa3c 35f3 523d
00000020: ca0d d13c 63d5 443d 18c9 c83c 1cf9 9e3c
00000030: a00e d33c 9a67 8c3c bbbd 163d dee2 283d
00000040: 1568 513d 1291 b93c 76dc 0b3d 296a e53c
00000050: b32d 0d3c 1e7c ec3c 541a 9c3c ceb2 623d
00000060: fdf2 1a3d be85 0e3d 3e3a 863c 33b5 a53c
00000070: 5439 ee3c 48ac 423d 2f46 cc3c a9bb 713d
00000080: d1f2 db3c cbef 3e3d 70db 333d b5b5 473d
00000090: 3bf2 9d3c 970e 593d 462b 053d 0e41 9f3c
000000a0: c073 e93c 752a 1b3d 48bf 1d3d 99f9 aa3c
000000b0: d498 b03c dc79 213d fc67 af3c 2ef4 9a3c
000000c0: f730 413d c0fb 073d b2ec a13c 5122 4c3d
000000d0: dcc4 5d3d 1246 703c 77fb 823d e256 a8bb
000000e0: 30d8 193d a5aa 2f3d 6f1f b23c a71c 383d
000000f0: e03e 353d 7f41 283d 4b13 843c 19b8 ed3c
00000100: 3627 cc3c e0b2 483d 6749 8c3c 4738 bd3c
00000110: 0b16 023d 7018 423d bfe2 c53c 8db9 da3c
00000120: fce0 423d 2ea8 c73c 9b1a 633d d667 6a3d
00000130: 97f8 483d 2be2 6f3d aeee f33c cb6c a43c
00000140: 23ed 913c 244b 243d 3aa4 793d 61bf 1d3d
00000150: 0034 443d 7136 d93c 49f0 1c3d e29c 493d
00000160: 2884 3d3c c840 3c3d 0587 983c 2c6d c53c
00000170: ca7e 5c3c 36a2 563d d242 463d 2b28 513d
00000180: 21e6 ca3c 0acd e83c 2937 423d 67b8 423d
00000190: 11b8 4f3d e47a 333d cbdb 0a3d d4ee 0e3d
000001a0: ddab 143d 5998 bf3c 4576 473d 7c18 523d
000001b0: be4e 643d 418d 433d fb5e d33c 52b7 563d
000001c0: 3bcb 4f3c f0b7 293d a544 673d b8e1 cf3c
000001d0: 2126 3f3d b98c 173d e957 9d3c 381a 4a3d
000001e0: 389b 1f3d 6a3f 2e3d ad0d 593d 2ae4 163d
000001f0: 3c8b e63c 01f7 463d 8400 573d 49fb 1e3d
0.04860683 0.04722808 0.021485627 0.024391286 0.046862468 0.05008995 0.03059359 0.05150147
0.02551927 0.048055064 0.024509951 0.019405894 0.02576381 0.017139245 0.036802035 0.041231982
0.05112465 0.022652183 0.034145795 0.028004723 0.008616853 0.028867777 0.019055523 0.055346303
0.037829388 0.034795515 0.016385194 0.020228004 0.02908007 0.04752758 0.02493581 0.059016857
0.026849182 0.046615403 0.043910444 0.048757274 0.019280544 0.05299243 0.032511972 0.0194402
0.028497577 0.037882287 0.0385125 0.02087097 0.02155725 0.039422855 0.021411888 0.018915262
0.047165837 0.033199072 0.019766185 0.049837414 0.054142818 0.014665144 0.06395619 -0.0051373104
0.037559688 0.04288735 0.021743504 0.0449492 0.044249415 0.041078087 0.01612248 0.029018449
0.024921041 0.048998713 0.017124845 0.023098124 0.031759303 0.047386587 0.024155973 0.026699806
0.047577843 0.024372187 0.055445295 0.057227932 0.0490652 0.0585653 0.029776897 0.020071408
0.01781327 0.040110722 0.060947634 0.03851259 0.047901154 0.026515217 0.03831509 0.04922188
0.011567153 0.045960218 0.01861907 0.024099909 0.013457963 0.05240079 0.04840357 0.051063698
0.024767937 0.028418083 0.047415886 0.04753914 0.05071265 0.04381837 0.033901017 0.034895733
0.036296714 0.023388075 0.048696775 0.05129288 0.055739157 0.047742132 0.025802126 0.05242092
0.012682731 0.041435182 0.05646195 0.025376186 0.046667222 0.036999438 0.019206958 0.04934141
0.038966388 0.042540945 0.052991558 0.036838688 0.028142564 0.048575405 0.052490726 0.038813863

features.9.running_mean f4 [128]
00000000: 6bcc c73e 3b6f 7b3e c182 e4bc 2793 4fbe
00000010: ce60 afbe 0470 efbe ec60 c43c e056 163e
00000020: 8652 59be f229 0ebd c482 abbe 0f9d ccbe
00000030: f19a 91be a43c 3fbe 4283 85bd 9335 30bf
00000040: c719 903f 499b dabd 2020 003c f400 73be
00000050: 1e9d dfbe 3a34 673e 7e3d b93d 309b 2e3f
00000060: 8e2a 6c3f 8d19 553f 9915 76bd ac4d 98be
00000070: b474 f1bd d02f b6be 3e73 64be f792 463f
00000080: 2d5f 7ebe e7cc 803e df0f 27be b500 a23f
00000090: 39a8 5bbe b73c 843f 1778 aebe 1671 423a
000000a0: 919d 7cbe 9e25 4ebe c780 4dbd e08f cfbe
000000b0: 69a6 c5bd 8d39 c8bd dbcc 18bf 71cb bd3f
000000c0: a194 05bf 6920 7ebc 063f ee3b 32e7 36bf
000000d0: 5b47 76be 665c e3be 5785 6cbe b73f bebe
000000e0: bbd5 0dbe 7fb6 953f d0f4 ccbb 48b9 723f
000000f0: c034 d1be 6b80 cbbd 00ea 70be 2c60 91be
00000100: 2fd7 0cbe da05 0d3f ee25 f5be 4370 6ebe
00000110: 971c 48bd ff56 80bd dd48 bcbe 1986 10be
00000120: d28b 883f a1c0 18bd 863e 09be 0dd9 aebe
00000130: d7bf bebe 7c30 50bf 1d47 96bd 5393 0b3d
00000140: c581 99be 8612 d43c 1f5b dd3e 3c15 78be
00000150: 0c84 6b3f 3637 77be 75eb a23d 0c13 28be
00000160: 1d3a 57be 841f cd3e f653 09bf 77dd fc3d
00000170: d254 32be f1f5 3a3f 0477 a63e b788 efbd
00000180: c05c 523e ac56 c5be 508f 873d 9ed1 abbe
00000190: 55a4 883f a931 213e 2ff6 7d3c 9ce5 f3bc
000001a0: 3224 383c 3441 92be bdba 7d3f be67 20bf
000001b0: 455c 90be dc33 543e e6df 8ebe 7c14 dbbd
000001c0: 2eba 483d 50b4 a8be dfc8 d73d 2cde 8c3e
000001d0: 84a3 00be 531e 863f a06f 1bbe 2c5f 6bbe
000001e0: f86f aabd 71f1 d2bc ecb3 1dbd db07 94be
000001f0: 03b0 bdbe 44e8 143f 06a7 21bd 2368 5b3d
0.39023146 0.2455415 -0.02789438 -0.20270978 -0.34253544 -0.4676515 0.023971997 0.14681578
-0.21222886 -0.03470797 -0.33498204 -0.39963576 -0.28438523 -0.18675476 -0.06519176 -0.6883175
1.1257867 -0.106741495 0.007820159 -0.23730832 -0.43674558 0.22578517 0.09044932 0.6820555
0.92252433 0.8324211 -0.06007919 -0.2974676 -0.117898375 -0.35583353 -0.22309586 0.77568
-0.24840994 0.25156328 -0.16314648 1.2656466 -0.2145089 1.0331029 -0.34075996 0.0007417364
-0.24669482 -0.20131537 -0.05017164 -0.40539455 -0.09650881 -0.09776602 -0.59687585 1.482771
-0.52179915 -0.015510657 0.0072706966 -0.71446526 -0.24050657 -0.44406432 -0.2309774 -0.37157986
-0.13851063 1.1696318 -0.00625477 0.94813967 -0.40860558 -0.09936603 -0.23526764 -0.28393686
-0.13753961 0.55087054 -0.478805 -0.23285012 -0.04885539 -0.06266593 -0.3677434 -0.14113654
1.066767 -0.03729308 -0.13402757 -0.34149972 -0.37255737 -0.8132398 -0.073377825 0.034076046
-0.2998182 0.025887739 0.43233582 -0.2422685 0.9199836 -0.24142155 0.07955066 -0.16413516
-0.21018262 0.40063107 -0.5364374 0.123469286 -0.17415169 0.73031527 0.32512677 -0.11695998
0.20543194 -0.38542688 0.066191316 -0.33558363 1.067515 0.157416 0.015500589 -0.029772572
0.011239098 -0.2856537 0.99113065 -0.626583 -0.28195396 0.20722908 -0.27905196 -0.106972665
0.04900568 -0.32950068 0.1053636 0.27513254 -0.12562376 1.0478004 -0.151793 -0.22985524
-0.083221376 -0.025749894 -0.038501665 -0.28912243 -0.3704835 0.5816691 -0.039465927 0.05356611

features.9.running_var f4 [128]
00000000: 34c4 ec3e 92c5 673e efc7 c73e 0d6e 823e
00000010: 6195 583e 7a9a 813e 4cd7 9b3e 91a6 b43e
00000020: 7b9e 983e 6b9d b63e ee87 713e fb83 bb3e
00000030: 7571 7d3e cd02 9f3e f23b a33e 270d a23e
00000040: 1ba8 b53e fcf8 b53e 7311 bb3e 27c4 ba3e
00000050: 0a7b c33e 6f74 983e c866 c63e 3595 ee3e
00000060: 6041 8e3e 702f 733e ab96 7f3e 142a 883e
00000070: 0e2d cf3e e987 813e 2a7f a03e 6a76 023f
00000080: af0c 5e3e a4f2 8a3e 782e 953e 85de be3e
00000090: 3f70 ca3e 0915 003f 5b30 5e3e 2eb7 7e3e
000000a0: 2b3c ca3e 2222 dc3e eb54 e03e f30d 613e
000000b0: c41e 923e 6ae5 983e 47f1 af3e 9fa6 153f
000000c0: 8906 8e3e bf82 f33e 126a 813e 1baa 9a3e
000000d0: 0833 e93e 849c ba3e 8a1d b23e f7b0 1c3f
000000e0: adef b03e e7bf a03e af2c 843e 362e ba3e
000000f0: d2a4 933e 4c1e 963e 55a3 993e ae11 a33e
00000100: 5a62 9f3e 6d0b 573e 27ad aa3e 41b5 a03e
00000110: a2c5 d63e 1be5 7c3e 65ee 0c3f e616 bc3e
00000120: 4158 e13e 053f 813e 71d9 ca3e 4344 853e
00000130: f03d a53e ece4 6c3e deab cf3e 3101 a13e
00000140: 5208 013f f028 723e c502 153f a27e a23e
00000150: edd3 9d3e da93 bc3e 1a5e 8e3e 0d67 883e
00000160: 6caa e73e 2830 8b3e fab6 e63e 5e68 963e
00000170: aa24 cc3e 9f42 9c3e 02f0 7f3e abd4 f83e
00000180: 8dbb 9b3e 8f2a b33e 7130 903e 68b1 c93e
00000190: 466f 8c3e 3c0c 7e3e ccbf b63e cb32 c53e
000001a0: bba2 a03e 87b9 993e ce4e 8c3e 396f 923e
000001b0: 01fd ae3e c17c a43e 6251 053f 1d93 983e
000001c0: 7a7f ae3e 81a3 973e a7d3 aa3e c396 b33e
000001d0: 5f30 9a3e 2ce8 d03e 4fed ae3e 300d a93e
000001e0: 050e ae3e 10b8 da3e 3910 a93e 7308 203f
000001f0: 1513 8d3e 7081 6c3e 7350 bc3e fa0c 1c3f
0.4624344 0.22633961 0.39019725 0.25474587 0.21150734 0.2531317 0.30437696 0.3528333
0.2980841 0.35666975 0.2358701 0.3662413 0.24750312 0.31056824 0.31881672 0.3165066
0.35479817 0.35541523 0.3653675 0.36477777 0.3817981 0.29776332 0.3875029 0.4659821
0.27784252 0.23748565 0.24959819 0.26594603 0.40464061 0.25299004 0.31347018 0.50961936
0.21684526 0.27138245 0.29137015 0.37279144 0.39538762 0.500321 0.21698134 0.24874565
0.3949903 0.4299479 0.43814787 0.21977977 0.28539097 0.2986253 0.34363768 0.5845737
0.2773936 0.4756069 0.25276238 0.30207905 0.45546746 0.36447537 0.34788162 0.61207527
0.34557858 0.3139641 0.2581534 0.3636338 0.28836685 0.2931999 0.30007425 0.31849426
0.31129724 0.21000452 0.3333523 0.31388286 0.41947657 0.24696772 0.5505126 0.3673622
0.44012645 0.25243393 0.3961902 0.26028642 0.32273817 0.23134202 0.40560812 0.3144622
0.5040332 0.23648429 0.5820735 0.31737238 0.3082575 0.36831552 0.2780617 0.26641122
0.4524721 0.27185178 0.45061475 0.293765 0.39871722 0.30519578 0.249939 0.48599753
0.30416527 0.34993407 0.28161958 0.39393163 0.27428645 0.24809355 0.35693204 0.38515314
0.31374153 0.3002436 0.27403873 0.2860048 0.34177402 0.3212643 0.52077305 0.2979974
0.34081632 0.2961693 0.33364603 0.3507596 0.3011503 0.40802133 0.34165427 0.33017874
0.3399507 0.42718554 0.3302019 0.6251289 0.2755362 0.23096251 0.36780128 0.609573
