py_workflow/model_simulation_validation/optimized_model/comp2_xiaoxin_others/embedding_model_epoch095.pth (torch, 407308 bytes, 8 tensors)

net.0.weight f4 [32, 1, 3, 3]
-0.22012176 0.1300781 -0.02261215 0.13102299 0.16894253 0.18308085 -0.2900059 -0.17837833
0.14514343 -0.15615092 -0.24133615 0.115339555 0.044256233 0.30698204 0.037601538 0.003704695
-0.19693887 -0.13458411 -0.23597436 -0.27313256 -0.3069862 -0.1500017 -0.05061544 -0.2527782
0.0741077 0.045949936 -0.19531123 0.014694114 -0.26603714 0.030541845 -0.2575524 0.025025817
-0.24736366 -0.04055815 0.26238394 0.19174482 -0.19260754 -0.21385673 -0.31526855 0.07005444
0.026594063 0.0328676 0.14795189 -0.28877768 0.2748677 0.23308219 -0.19520007 -0.25715858
-0.278422 0.11028191 -0.053707156 -0.28920934 -0.10619452 -0.1503911 0.23543413 -0.0026060527
-0.03069733 -0.31235266 0.31791356 0.018768016 -0.22799008 -0.11718077 0.32545835 -0.08460192
-0.1053217 0.27941346 0.14294069 0.26768574 -0.0088438755 0.16117612 0.13793905 0.08192996
0.085167356 0.11721668 -0.13051827 -0.28383335 0.34934282 -0.21641485 0.09009742 0.073322125
0.11078116 -0.0056925123 -0.17703645 -0.14822672 0.08422361 -0.034061685 0.23354907 -0.1578643
-0.15887715 0.018504528 -0.19802281 0.1246761 0.14686555 0.18221958 -0.1597258 -0.154007
0.043221813 -0.3082512 -0.002988394 0.043960955 -0.22056103 -0.34809443 0.02016154 -0.3220642
-0.31369114 -0.07392795 0.23077159 -0.30912453 0.2982006 0.31538984 -0.0050317654 0.022118688
-0.24213584 0.31502742 0.082811005 -0.17419468 0.34729627 -0.016694343 -0.06456566 0.27439007
-0.11575491 0.027845481 -0.17720209 -0.12567048 0.17838258 0.14282492 -0.0847459 -0.104189664
0.27786356 0.019185755 0.07247206 -0.2137847 0.09224611 0.24858063 -0.26144278 0.31869832
0.2476091 0.18611968 -0.31233904 -0.28774604 0.29812288 -0.046153218 0.28416616 -0.296987
0.27588677 -0.043528747 -0.06705387 -0.21691479 -0.14172412 0.06419449 0.07199563 -0.26686788
-0.21988763 0.08688637 0.27757415 -0.2947462 0.24631734 0.187485 0.32448757 0.21581735
-0.29740942 0.016490445 -0.32554343 0.16934912 -0.24664496 -0.0036658845 0.011640968 -0.1753613
-0.21625888 0.15710063 -0.20586504 0.21602541 -0.32120472 0.157841 -0.25223634 0.32516485
-0.08035846 0.23583768 0.06521612 -0.16482809 0.13056874 0.25069246 -0.3179276 -0.30005574
0.24506617 -0.18128616 0.124636866 -0.33715272 0.063458405 0.037979826 0.14960094 0.0036912162
-0.17853494 0.02524843 0.015255743 0.13408686 0.16181841 0.31478778 0.26495668 -0.18800035
0.16649583 0.24461025 0.23102328 -0.1768404 0.07135356 0.29827622 0.08510735 0.3429181
-0.28693348 -0.2809205 0.16539893 0.30946383 0.08280971 0.11613089 0.24092561 -0.06931325
-0.16954859 0.19822633 -0.03942994 0.18090959 0.15512115 -0.12156695 0.24093921 0.3091104
0.22896068 -0.29703936 -0.02865572 -0.15380986 0.26759806 -0.29924652 0.2751928 0.30682734
0.066883646 0.008004634 0.30974767 -0.26306188 -0.037019555 -0.16994663 -0.23657261 0.22486971
0.1214816 -0.15599108 -0.08839624 0.29479232 0.0383743 -0.012594557 -0.26025718 -0.1530094
0.22216268 0.07840783 -0.13624814 -0.18572855 -0.19091728 0.14296381 0.1646393 -0.21799886
00000000: 9967 61be 3233 053e 1e3d b9bc e42a 063e
00000010: 45ff 2c3e 8c79 3b3e a77b 94be cfa8 36be
00000020: 7ba0 143e 07e6 1fbe d320 77be 2537 ec3d
00000030: 0646 353d c02c 9d3e 1204 1a3d 78ca 723b
00000040: 58aa 49be 6bd0 09be 43a3 71be 08d8 8bbe
00000050: 4c2d 9dbe 0c9a 19be 2352 4fbd 256c 81be
00000060: c7c5 973d 0036 3c3d abff 47be 95bf 703c
00000070: 0536 88be e432 fa3c e8dd 83be f102 cd3c
00000080: e64c 7dbe 4d20 26bd 3057 863e c158 443e
00000090: e93a 45be 42fd 5abe e16a a1be b478 8f3d
000000a0: cbdb d93c 2da0 063d b380 173e abda 93be
000000b0: 76bb 8c3e 19ad 6e3e 87e2 47be 4aaa 83be
000000c0: 548d 8ebe 7bdb e13d 09fc 5bbd 3f13 94be
000000d0: 837c d9bd 2000 1abe a515 713e 4fca 2abb
000000e0: f878 fbbc b0ec 9fbe 91c5 a23e 62bf 993c
000000f0: 3b76 69be 79fc efbd 7aa2 a63e c543 adbd
00000100: e7b2 d7bd 480f 8f3e 0b5f 123e 1b0e 893e
00000110: e7e5 10bc 5a0b 253e e53f 0d3e e5ca a73d
00000120: 396c ae3d 4c0f f03d 95a6 05be 9b52 91be
00000130: 10dd b23e db9b 5dbe ff84 b83d e929 963d
00000140: 3ce1 e23d 4188 babb 0b49 35be bfc8 17be
00000150: 6e7d ac3d 4484 0bbd 7d27 6f3e 2ea7 21be
00000160: b1b0 22be cf96 973c 7ec6 4abe 2f56 ff3d
00000170: ec63 163e c597 3a3e 298f 23be 03b4 1dbe
00000180: 5b09 313d 1ad3 9dbe eed8 43bb 6710 343d
00000190: c0da 61be 6f39 b2be d029 a53c 99e5 a4be
000001a0: 209c a0be 8967 97bd 634f 6c3e 9245 9ebe
000001b0: c0ad 983e c77a a13e 82e1 a4bb 4032 b53c
000001c0: 75f2 77be 464b a13e d198 a93d 1760 32be
000001d0: d1d0 b13e 93c2 88bc 003b 84bd db7c 8c3e
000001e0: e910 edbd 351c e43c 7774 35be c3af 00be
000001f0: eca9 363e b240 123e 428f adbd 6461 d5bd
00000200: 2244 8e3e 722b 9d3c 3b6c 943d 60ea 5abe
00000210: 87eb bc3d ec8b 7e3e d4db 85be 6d2c a33e
00000220: 3d8d 7d3e 2896 3e3e e7ea 9fbe 7353 93be
00000230: 90a3 983e 280b 3dbd 3a7e 913e ae0e 98be
00000240: 0841 8d3e 334b 32bd 8a53 89bd e91e 5ebe
00000250: 2120 11be 6778 833d 7272 933d e8a2 88be
00000260: 392a 61be 7bf1 b13d 331e 8e3e f9e8 96be
00000270: 9d3a 7c3e 11fc 3f3e 3c23 a63e 39ff 5c3e
00000280: 0c46 98be f816 873c a1ad a6be db69 2d3e
00000290: 7f90 7cbe 563f 70bb c2b9 3e3c ea91 33be
000002a0: f872 5dbe fdde 203e 49ce 52be c435 5d3e
000002b0: f274 a4be 12a1 213e 1f25 81be 027c a63e
000002c0: fa92 a4bd 6f7f 713e 0790 853d b2c8 28be
000002d0: d0b3 053e c35a 803e 68c7 a2be e8a0 99be
000002e0: a0f2 7a3e 14a3 39be 9d41 ff3d 489f acbe
000002f0: 7bf6 813d bc90 1b3d fd30 193e 55e8 713b
00000300: ddd1 36be ccd5 ce3c 39f3 793c 114e 093e
00000310: bab3 253e dd2b a13e 67a8 873e 2a83 40be
00000320: e27d 2a3e 1c7b 7a3e 5e91 6c3e a615 35be
00000330: d121 923d a9b7 983e c34c ae3d f692 af3e
00000340: f2e8 92be d0d4 8fbe 565e 293e 0b72 9e3e
00000350: 2398 a93d 08d6 ed3d 34b5 763e 1bf4 8dbd
00000360: 259e 2dbe d8fb 4a3e 4a81 21bd 5d40 393e
00000370: 14d8 1e3e 18f8 f8bd c5b8 763e b843 9e3e
00000380: ab74 6a3e 8b15 98be 67bf eabc 5580 1dbe
00000390: 9d02 893e d736 99be 12e6 8c3e 7918 9d3e
000003a0: 4bfa 883d de25 033c 3f97 9e3e 0cb0 86be
000003b0: d1a1 17bd 7d06 2ebe 1740 72be 3f44 663e
000003c0: 58cb f83d 20bc 1fbe 1609 b5bd 05ef 963e
000003d0: 5f2e 1d3d 6759 4ebc 6e40 85be 7fae 1cbe
000003e0: 9d7e 633e 4994 a03d a284 0bbe a02f 3ebe
000003f0: d27f 43be 1b65 123e 3497 283e 183b 5fbe

net.0.bias f4 [32]
0.12658392 -0.16367158 0.2247199 -0.07029035 -0.09158553 -0.174519 -0.15850866 0.09651871
-0.17501014 0.002832293 -0.29844466 -0.27481622 -0.31094667 0.080819346 -0.1577322 -0.07518278
-0.039681092 -0.27263814 0.121738054 -0.061694898 0.21332936 0.16249041 -0.19300847 0.06731837
-0.3472702 -0.15328328 0.0993304 0.161725 -0.046576727 -0.2040717 -0.071684964 0.18121028
00000000: 379f 013e 8699 27be f91c 663e 63f4 8fbd
00000010: 3291 bbbd 1cb5 32be 1850 22be 9aab c53d
00000020: dc35 33be fe9d 393b bdcd 98be b6b4 8cbe
00000030: 6734 9fbe 9d84 a53d 8d84 21be 6ef9 99bd
00000040: a488 22bd 3a97 8bbe cd51 f93d cab3 7cbd
00000050: 0373 5a3e e363 263e 03a4 45be 37de 893d
00000060: 66cd b1be 4bf6 1cbe bd6d cb3d 3d9b 253e
00000070: 3dc7 3ebd 2cf8 50be 91cf 92bd 308f 393e

net.3.weight f4 [64, 32, 3, 3]
-0.036176752 -0.027616855 -0.041008476 -0.057082687 -0.0073603536 0.025273215 -0.05484378 0.024290832
-0.037856635 -0.037579305 -0.046717532 -0.030957112 0.0044046436 -0.052406568 0.047722947 0.006921166
-0.030228859 0.00764008 0.0070223305 0.05623749 -0.024106678 0.012859468 -0.056804158 0.021823572
-0.047284126 -0.01985703 0.02107702 -0.02843715 -0.03701842 0.06137308 0.0028250644 0.008024446
-0.054335702 -0.022152135 -0.034889024 -0.020712223 0.015551123 -0.021053307 0.021685906 -0.02926309
-0.0166131 0.034839403 -0.06344741 0.008345006 -0.06521904 0.060399085 -0.04513756 0.042420927
-0.027603934 -0.021749891 -0.08227112 -0.0031687843 0.033436198 -0.019994518 -0.073819496 0.016897807
-0.07546306 -0.014517112 0.05613948 -0.0030827601 -0.041963954 -0.062097732 -0.01111817 0.013606248
0.03139897 -0.045868214 0.01546803 0.02203634 -0.01917347 -0.0022326026 -0.049752567 -0.03516229
-0.03172046 -0.00023498447 0.014332373 -0.023928775 0.00807137 0.012721004 -0.034441248 -0.05028607
0.020541662 0.03818788 -0.008820817 0.03010758 -0.044660185 -0.035099085 -0.015733643 -0.037644494
0.0018830674 0.0069520525 0.009742188 -0.040931284 -0.045950487 -0.0030072816 0.021004468 -0.01836735
-0.05801269 -0.033579163 -0.0280609 -0.011971053 -0.03746267 0.028555274 -0.024485324 -0.062279858
-0.02276426 -0.04001435 -0.061293438 -0.03333647 -0.06979352 -0.023048999 -0.0009314574 -0.047490574
-0.0074644084 0.0071571604 0.02849382 0.049097072 -0.058217723 0.059039414 0.04484437 0.048421215
-0.01201174 0.003331136 -0.052454025 -0.025165813 0.024909798 0.008521004 0.052111723 0.024355402
-0.04011795 -0.0012639291 -0.02075913 -0.04373459 -0.022523401 -0.048487317 0.015340407 -0.004753676
0.02256277 0.006527813 0.0014035152 -0.051802523 0.005345985 0.0012414315 0.04853605 0.011219494
-0.036213752 0.027246108 -0.05107885 -0.07448571 -0.031270225 0.02329288 -0.029137105 0.0017580319
-0.016565027 0.00055086456 0.022607876 0.059955403 -0.048725855 0.02630076 0.03510949 -0.05895365
-0.04662836 -0.04236825 0.026160264 -0.035348535 0.04178003 -0.036737725 0.028338538 0.022090882
0.01922598 0.03809936 0.033815473 -0.022751773 -0.018148048 0.046556562 0.0036285496 -0.04954248
-0.036856197 0.0345205 -0.031244742 0.01009278 0.018579744 0.037914123 0.020412644 -0.020287381
0.013882511 -0.05808434 0.016229216 -0.0580883 -0.072743565 0.023928212 -0.04738098 -0.0105691375
-0.050178245 -0.017826507 -0.005591374 0.05993855 -0.047236033 0.023387656 0.002471127 0.036340054
0.04197456 -0.0027054918 0.014670335 0.012073351 -0.022805916 -0.01806179 -0.051306523 -0.04547672
0.037850548 0.0515531 -0.01824337 0.030647587 0.04816014 -0.10632517 -0.066942826 -0.03172733
0.003997211 -0.06191822 0.028082324 -0.012460184 0.031342767 -0.024410138 -0.020911051 0.05015575
0.008328738 0.054213036 0.036373194 0.005193042 -0.044280313 -0.006628827 -0.0007975478 -0.055455536
-0.08462141 -0.055585735 0.019584175 0.016849943 -0.051545803 0.0022691838 -0.057736516 -0.03535786
0.015695835 -0.0011040525 -0.03420882 0.048122685 -0.03222733 -0.009235862 0.010816851 0.008824404
0.010219432 -0.057244547 -0.050275505 0.046026744 0.039553568 -0.057648033 -0.039958376 0.029048486
00000000: 132e 14bd be3c e2bc 81f8 27bd 89cf 69bd
00000010: 1f2f f1bb c609 cf3c dfa3 60bd 91fd c63c
00000020: 8f0f 1bbd c2ec 19bd e25a 3fbd c599 fdbc
00000030: d454 903b 45a8 56bd 2379 433d f3ca e23b
00000040: 83a2 f7bc a359 fa3b 941b e63b 4859 663d
00000050: 5e7b c5bc 85b0 523c 7aab 68bd 59c7 b23c
00000060: 00ad 41bd 36ab a2bc b7a9 ac3c 07f5 e8bc
00000070: a0a0 17bd 5762 7b3d b724 393b f778 033c
00000080: 1d8f 5ebd 6578 b5bc cbe7 0ebd aeac a9bc
00000090: 23ca 7e3c fc77 acbc a4a6 b13c 26b9 efbc
000000a0: 3218 88bc c3b3 0e3d b7f0 81bd 7eb9 083c
000000b0: 8f91 85bd 0865 773d 2ae2 38bd 91c1 2d3d
000000c0: a521 e2bc d42c b2bc c37d a8bd 61ab 4fbb
000000d0: 65f4 083d 8bcb a3bc ad2e 97bd 456d 8a3c
000000e0: 608c 9abd 2ed9 6dbc 83f2 653d 2208 4abb
000000f0: 65e2 2bbd 315a 7ebd fc28 36bc beec 5e3c
00000100: 359c 003d 4fe0 3bbd 9f6d 7d3c 8e85 b43c
00000110: ae11 9dbc db50 12bb 59c9 4bbd 5506 10bd
00000120: 50ed 01bd 2a66 76b9 54d2 6a3c 4706 c4bc
00000130: c83d 043c c26b 503c 4412 0dbd c4f8 4dbd
00000140: fd46 a83c e56a 1c3d 3085 10bc 2ca4 f63c
00000150: 99ed 36bd 0fc4 0fbd d7e3 80bc 1d31 1abd
00000160: 42d1 f63a 0bce e33b b39d 1f3c 90a7 27bd
00000170: 9436 3cbd d015 45bb 9011 ac3c 2077 96bc
00000180: b79e 6dbd 4e8a 09bd f9df e5bc 3c22 44bc
00000190: 7572 19bd c0ec e93c 7295 c8bc 2a19 7fbd
000001a0: 1d7c babc 16e6 23bd d40e 7bbd d38b 08bd
000001b0: e8ef 8ebd 41d1 bcbc 0c2d 74ba 7a85 42bd
000001c0: ff97 f4bb 9d86 ea3b df6b e93c 031a 493d
000001d0: b575 6ebd 50d3 713d bbae 373d 5355 463d
000001e0: e4cc 44bc 304f 5a3b 08da 56bd 8928 cebc
000001f0: a20f cc3c ae9b 0b3c 1a73 553d fb84 c73c
00000200: b852 24bd 6caa a5ba 0d0f aabc 0b23 33bd
00000210: ff82 b8bc a39a 46bd 5556 7b3c b9c4 9bbb
00000220: 8fd5 b83c 44e7 d53b 28f6 b73a e22e 54bd
00000230: 5f2d af3b 87b7 a23a bdcd 463d f8d1 373c
00000240: df54 14bd 3b33 df3c 0e38 51bd f78b 98bd
00000250: 3515 00bd b6d0 be3c f0b0 eebc c36d e63a
00000260: 61b3 87bc e567 103a 2734 b93c cc93 753d
00000270: c394 47bd b174 d73c f8ce 0f3d 6279 71bd
00000280: 61fd 3ebd 558a 2dbd 0d4e d63c a0c9 10bd
00000290: 8921 2b3d 4c7a 16bd 3926 e83c f0f7 b43c
000002a0: cd7f 9d3c 130e 1c3d 1882 0a3d ed61 babc
000002b0: 37ab 94bc 18b2 3e3d f6cc 6d3b 0eed 4abd
000002c0: 86f6 16bd 5e65 0d3d f9f4 ffbc 305c 253c
000002d0: 8c34 983c d74b 1b3d 6b38 a73c b931 a6bc
000002e0: 7973 633c d8e9 6dbd 22f3 843c ffed 6dbd
000002f0: 94fa 94bd 1905 c43c 8f12 42bd 2d2a 2dbc
00000300: b487 4dbd e508 92bc d837 b7bb 2082 753d
00000310: 927a 41bd 7897 bf3c a2f2 213b 4fd9 143d
00000320: 84ed 2b3d 9f4e 31bb d85b 703c 4ecf 453c
00000330: 79d3 babc 52f6 93bc ca26 52bd cc45 3abd
00000340: 2d09 1b3d 5829 533d 1f73 95bc a610 fb3c
00000350: 9143 453d 03c1 d9bd 5219 89bd 84f4 01bd
00000360: 09fb 823b f69d 7dbd e70c e63c cd25 4cbc
00000370: 4661 003d c5f7 c7bc a74d abbc 1e70 4d3d
00000380: 4275 083c 7d0e 5e3d 0ffc 143d 652a aa3b
00000390: 465f 35bd a236 d9bb 8712 51ba 5825 63bd
000003a0: fd4d adbd dead 63bd fe6e a03c e408 8a3c
000003b0: b121 53bd 96b6 143b 207d 6cbd 67d3 10bd
000003c0: 8d94 803c dbb5 90ba 8c1e 0cbd 4b1c 453d
000003d0: ce00 04bd 0352 17bc 2939 313c 3c94 103c
000003e0: 686f 273c 4279 6abd b0ed 4dbd 8a86 3c3d
000003f0: ec02 223d 5820 6cbd 65ab 23bd 17f7 ed3c

net.3.bias f4 [64]
0.016782844 -0.05073514 -0.061788026 -0.018493833 -0.036038168 -0.054040764 -0.051231153 -0.049846213
0.058296796 0.06648393 0.033134624 0.0067974334 -0.05616492 0.056545638 -0.05692571 0.017772319
-0.029631179 0.017761817 0.013544462 -0.04386297 -0.02337356 -0.03900051 0.021607917 -0.053460695
-0.00046017708 -0.0055861785 -0.053997304 -0.033877704 0.023734318 -0.027637603 0.04327608 -0.030723544
-0.0013595511 0.027087515 -0.011160205 -0.03390704 -0.01030174 -0.041753113 0.014556033 0.0045043356
-0.06435344 -0.059337642 -0.0054380554 0.003922801 -0.037226208 -0.066046596 -0.0073793475 -0.020269202
0.026934726 0.032652345 0.028735634 -0.018820425 -0.009515654 0.0385896 -0.053314622 0.040238693
-0.023032239 0.03040591 0.015920404 0.03600309 -0.0077835456 0.008733676 -0.016619537 -0.032714624
00000000: 2d7c 893c a6cf 4fbd 7115 7dbd 6180 97bc
00000010: c29c 13bd d959 5dbd c2d7 51bd 8b2b 4cbd
00000020: 9fc8 6e3d ba28 883d 2cb8 073d 01bd de3b
00000030: 300d 66bd 669c 673d ef2a 69bd 4197 913c
00000040: 16bd f2bc 3b81 913c 97e9 5d3c a8a9 33bd
00000050: e879 bfbc 00bf 1fbd 1603 b13c 9af9 5abd
00000060: ec43 f1b9 430c b7bb 472c 5dbd 59c3 0abd
00000070: 796e c23c 4168 e2bc 4242 313d f1af fbbc
00000080: f732 b2ba a3e6 dd3c 4bd9 36bc 1ce2 0abd
00000090: a1c8 28bc 5005 2bbd 6d7c 6e3c 1b99 933b
000000a0: bdcb 83bd 070c 73bd b731 b2bb d78a 803b
000000b0: 827a 18bd 7043 87bd 74ce f1bb 990b a6bc
000000c0: 37a6 dc3c 77be 053d fe66 eb3c 4b2d 9abc
000000d0: 8ce7 1bbc 2110 1e3d 6f60 5abd 54d1 243d
000000e0: 1bae bcbc d115 f93c 826b 823c fa77 133d
000000f0: 1d0d ffbb b117 0f3c b225 88bc c5ff 05bd

net.6.weight f4 [128, 64, 3, 3]
-0.020348432 0.035208635 -0.017974414 -0.032747824 0.00019690281 0.036229234 -0.010911036 0.021775551
0.017905887 -0.009607849 -0.00013522919 0.008514599 0.027108429 -0.019719679 -0.017361017 0.0004243951
0.011758244 0.011174292 -0.030251576 0.028708797 -0.048774976 -0.029742269 -0.0017533238 -0.047680356
-0.028334785 -0.006059693 -0.0064702965 0.023183163 0.0032750596 0.020108411 -0.047144804 -0.029903065
-0.05222633 -0.0210666 -0.025646955 0.036558617 0.0006892223 -0.027280053 -0.028491555 0.006682932
0.01746736 -0.027908314 -0.034838498 -0.0165881 -0.020546352 -0.0045242645 -0.018707573 0.031250454
0.028203398 -0.020291114 0.0158494 -0.017400488 0.018877948 -0.02455783 -0.020875871 0.0017073966
0.033110406 0.036404215 -0.012835038 -0.028763011 -0.065783806 -0.034219444 -0.061223384 -0.040736817
-0.007903675 -0.03346941 0.025883049 -0.032614514 -0.005640249 -0.04970677 0.017481163 -0.041987315
-0.06088453 0.0065693324 -0.0043464983 0.02732738 0.03669542 0.019697351 0.025866881 -0.04718485
-0.016343663 -0.022630712 0.06577444 -0.0750656 0.0107209915 0.07603242 -0.05659996 0.017353183
-0.012011937 -0.05328922 -0.033823982 -0.010252933 -0.028919594 0.031297266 -0.039595507 0.01268067
-0.008499525 0.017674627 -0.031413805 0.011442338 0.037722103 -0.051935025 -0.03025359 0.043151833
0.035191644 0.007838677 -0.038429257 0.0027290767 -0.04790296 -0.012031631 -0.011785303 0.017663699
-0.037495572 0.0058315294 -0.02967028 0.022834199 -0.040546983 0.012434246 -0.03491873 0.037424285
-0.01555943 -0.026129043 -0.03559459 -0.005615037 0.008819362 -0.047055203 -0.0504445 -0.023754967
-0.01030268 -0.009266355 -0.02067464 0.04539766 0.006698366 -0.01851125 -0.0438821 -0.018821228
0.033252314 -0.0032038675 0.00109861 0.033779554 -0.009294944 -0.06435056 -0.08095592 -0.067332685
-0.026178885 0.03366082 -0.046372205 0.0260582 0.016392672 0.028934592 -0.057844743 -0.056223605
0.017768163 -0.041392732 0.02721422 -0.03319992 -0.029353695 -0.024906516 0.0015424889 -0.021232743
-0.0120611135 -0.038473874 0.017015222 0.018947545 0.048780143 0.0489526 -0.004629787 0.041799333
-0.030831343 -0.03294478 -0.006290494 0.012888449 0.032176208 0.016224703 0.016930714 -0.006815295
0.0129024675 -0.049036376 -0.035759095 -0.040815372 0.06286521 0.02765688 0.07162135 0.034465853
0.07897977 0.070461884 -0.0045217923 -0.038932074 0.020875974 -0.025481883 0.05713457 0.034014706
0.0023617097 0.015721297 -0.0014742346 -0.04352114 -0.050455377 -0.022939682 -0.022989927 0.0067143505
0.014419715 -0.039591294 0.023927327 -0.0054399134 0.021938968 -0.015457657 -0.033524603 0.049909964
0.01638892 -0.018417664 -0.02339287 -0.054515187 0.0011249051 0.03250148 0.020338412 -0.049898367
-0.028080462 -0.033022553 -0.00154183 -0.008361931 0.029978069 -0.0281376 -0.035182428 -0.03392851
0.0016552294 -0.012245003 0.0646238 -0.13392036 0.0845548 0.050724454 0.059215624 -0.09897085
-0.052757822 -0.11682428 -0.008557149 -0.009642477 -0.02497076 -0.020036312 0.020757345 0.0017206265
-0.020310363 -0.0070998427 -0.045828443 -0.017944148 0.040718615 -0.03829558 0.023714965 -0.031013979
0.010249264 -0.035446025 -0.04226219 0.0046450323 -0.02170798 -0.0034398898 -0.016770758 -0.0063741705
00000000: c1b1 a6bc ee36 103d 143f 93bc 9522 06bd
00000010: b277 4e39 1b65 143d 34c4 32bc a462 b23c
00000020: 5eaf 923c 3d6a 1dbc 4fcc 0db9 d180 0b3c
00000030: 7f12 de3c 2a8b a1bc b138 8ebc 5981 de39
00000040: a6a5 403c 6114 373c 27d2 f7bc b62e eb3c
00000050: 45c8 47bd 0fa6 f3bc c9cf e5ba 7a4c 43bd
00000060: 5a1e e8bc 6490 c6bb c804 d4bb 9eea bd3c
00000070: 62a2 563b 65ba a43c e91a 41bd 46f7 f4bc
00000080: 47eb 55bd dd93 acbc 9019 d2bc 7dbe 153d
00000090: edac 343a 6b7a dfbc 1f67 e9bc 7ffc da3b
000000a0: b517 8f3c fa9f e4bc d0b2 0ebd c4e3 87bc
000000b0: d350 a8bc 4840 94bb a040 99bc 7a00 003d
000000c0: d00a e73c 8d39 a6bc 9ad6 813c 788b 8ebc
000000d0: eda5 9a3c 812d c9bc e003 abbc b9ca df3a
000000e0: c79e 073d 961c 153d 0d4a 52bc 68a0 ebbc
000000f0: a9b9 86bd b029 0cbd 5fc5 7abd a6db 26bd
00000100: 6a7e 01bc 3817 09bd b008 d43c cc96 05bd
00000110: d6d1 b8bb 5399 4bbd a834 8f3c e4fa 2bbd
00000120: 0f62 79bd 8e43 d73b 126d 8ebb abdd df3c
00000130: f04d 163d 575c a13c c8e6 d33c e744 41bd
00000140: 25e3 85bc 0b64 b9bc c0b4 863d febb 99bd
00000150: 19a7 2f3c e3b6 9b3d 5cd5 67bd 4328 8e3c
00000160: b7cd 44bc cc45 5abd 048b 0abd ebfb 27bc
00000170: c9e8 ecbc 9031 003d e62e 22bd 96c2 4f3c
00000180: 9741 0bbc 61ca 903c c3ab 00bd a578 3b3c
00000190: 7e82 1a3d d2b9 54bd 60d6 f7bc fabf 303d
000001a0: 1d25 103d cb6d 003c ff67 1dbd 4fda 323b
000001b0: e535 44bd 5120 45bc 2517 41bc 76b3 903c
000001c0: f594 19bd 6a16 bf3b 160f f3bc c90e bb3c
000001d0: 9814 26bd 02b9 4b3c f106 0fbd 354a 193d
000001e0: fbec 7ebc 930c d6bc a2cb 11bd 58fe b7bb
000001f0: 167f 103c f5bc 40bd e49e 4ebd c799 c2bc
00000200: 92cc 28bc e9d1 17bc dd5d a9bc e6f2 393d
00000210: f77d db3b e8a4 97bc b8bd 33bd fa2e 9abc
00000220: 9433 083d faf7 51bb 3cff 8f3a 6e5c 0a3d
00000230: d249 18bc 3aca 83bd 38cc a5bd b8e5 89bd
00000240: 1a75 d6bc eedf 093d c8f0 3dbd 0278 d53c
00000250: ed49 863c 3d08 ed3c 9cee 6cbd b94a 66bd
00000260: 8a8e 913c 6d8b 29bd 5bf0 de3c a4fc 07bd
00000270: 2977 f0bc c008 ccbc 572d ca3a 4af0 adbc
00000280: fa9b 45bc c896 1dbd 8263 8b3c e237 9b3c
00000290: b0cd 473d 8682 483d 78b5 97bb c735 2b3d
000002a0: 0392 fcbc 1bf1 06bd 7d20 cebb 132a 533c
000002b0: 33cb 033d abe9 843c 48b2 8a3c d752 dfbb
000002c0: df64 533c 5eda 48bd 2178 12bd 052e 27bd
000002d0: 7abf 803d ae90 e23c 37ae 923d 112c 0d3d
000002e0: 25c0 a13d 524e 903d 8b2b 94bb 3d77 1fbd
000002f0: 1704 ab3c 62bf d0bc f005 6a3d 0153 0b3d
00000300: eac6 1a3b f3c9 803c 1b3b c1ba 3943 32bd
00000310: 4caa 4ebd 00ec bbbc 5f55 bcbc 0e04 dc3b
00000320: ab40 6c3c 7b2a 22bd 3e03 c43c 4d41 b2bb
00000330: 5ab9 b33c 1d42 7dbc 1851 09bd 646e 4c3d
00000340: 0e42 863c a4e0 96bc 67a2 bfbc 514b 5fbd
00000350: 8d71 933a 4620 053d be9c a63c 3b62 4cbd
00000360: ff08 e6bc a842 07bd 3b17 caba 7b00 09bc
00000370: 9194 f53c d380 e6bc 731b 10bd 9ff8 0abd
00000380: 48f4 d83a 449f 48bc 7c59 843d 6b22 09be
00000390: 112b ad3d 72c4 4f3d 158c 723d 3bb1 cabd
000003a0: 9618 58bd 9141 efbd 4933 0cbc 7bfb 1dbc
000003b0: 7b8f ccbc 3123 a4bc 4f0b aa3c a586 e13a
000003c0: eb61 a6bc cca5 e8bb 9bb6 3bbd 9bff 92bc
000003d0: 90c8 263d d3db 1cbd e345 c23c 0711 febc
000003e0: 87ec 273c da2f 11bd 1e1b 2dbd 5b35 983b
000003f0: efd4 b1bc c66f 61bb d462 89bc 6bde d0bb

net.6.bias f4 [128]
-0.0070900377 0.018258035 0.02575546 -0.0016577282 -0.0017831903 0.01211697 0.031038424 0.034715183
0.009633995 0.011486936 0.04792597 0.034271646 0.016916873 0.03912442 -0.0064991536 -0.032888666
-0.04806473 -0.005842585 0.0307249 -0.06043914 0.0036928214 -0.03743317 0.012984169 -0.0531998
0.008952033 -0.009889695 0.010468394 -0.028336288 -0.017797386 -0.0004092481 0.007836048 0.0050915796
-0.05069059 0.033106316 -0.0502461 -0.0048443093 0.021851001 -0.002539313 0.02650374 0.027660003
0.0005988573 -0.051077597 -0.030542467 -0.040160604 -0.051917277 -0.008017903 -0.017789863 -0.027890552
0.0049522524 -0.0015318425 0.02072112 0.009377219 0.012903738 -0.010924796 0.053833593 0.033995185
-0.032405287 -0.054136056 -0.008915665 -0.04861348 -0.016664157 -0.0093551 -0.01417822 -0.043002866
-0.048808396 -0.014793768 0.03073489 0.018804565 -0.01694039 -0.02771126 0.015282958 0.0110248085
-0.03831078 0.040759236 0.028615665 -0.030369982 0.06664534 0.022882527 -0.0067050336 0.03733176
-0.009734448 0.0023997417 0.0073819864 -0.021185985 0.006726715 0.006630694 -0.0029511682 -0.004335503
-0.03642858 0.043293893 -0.003994029 0.025803654 -0.033477895 -0.0474944 -0.045456212 -0.016750414
-0.008232647 0.031121694 -0.012950699 0.0027730202 0.040518444 0.027958127 0.019911567 -0.030693723
-0.023531139 -0.004793824 0.022659289 0.0021188816 0.029870234 0.016816875 0.0034788712 0.04366139
0.011151486 0.030753225 -0.03595831 0.008168976 0.028627947 -0.04667687 -0.004024567 -0.03772492
-0.0032478375 0.019680329 -0.03446108 -0.04912867 0.006492584 0.00042644716 -0.03380937 0.025780328
00000000: 8c53 e8bb e091 953c 1dfd d23c 2148 d9ba
00000010: f0b9 e9ba 4186 463c 4b44 fe3c 8231 0e3d
00000020: e7d7 1d3c b433 3c3c 064e 443d 6d60 0c3d
00000030: 4195 8a3c ee40 203d daf6 d4bb 44b6 06bd
00000040: 86df 44bd 2873 bfbb c9b2 fb3c 088f 77bd
00000050: 4303 723b 8653 19bd 8dbb 543c 09e8 59bd
00000060: 8cab 123c 6308 22bc a083 2b3c 8121 e8bc
00000070: d3cb 91bc 5a90 d6b9 c462 003c 44d7 a63b
00000080: f0a0 4fbd 7d9a 073d dbce 4dbd 03bd 9ebb
00000090: df00 b33c 9a6a 26bb 5f1e d93c 3b97 e23c
000000a0: a2fc 1c3a be36 51bd 3234 fabc 727f 24bd
000000b0: 36a7 54bd 865d 03bc 0cbc 91bc ba7a e4bc
000000c0: 8146 a23b 1bc8 c8ba 57bf a93c e8a2 193c
000000d0: 336a 533c eafd 32bc 9d80 5c3d 893e 0b3d
000000e0: 68bb 04bd c5bd 5dbd 0213 12bc ee1e 47bd
000000f0: 4583 88bc 2246 19bc c44b 68bc c623 30bd
00000100: 50eb 47bd 8f61 72bc bcc7 fb3c 080c 9a3c
00000110: 93c6 8abc b902 e3bc 5f65 7a3c 66a1 343c
00000120: c4eb 1cbd 28f3 263d 666b ea3c 78ca f8bc
00000130: 5a7d 883d 2374 bb3c e6b5 dbbb 30e9 183d
00000140: 3c7d 1fbc fc44 1d3b 97e4 f13b 3b8e adbc
00000150: c66b dc3b 4b46 d93b 6368 41bb d610 8ebb
00000160: 2236 15bd f054 313d 58e0 82bb 2f62 d33c
00000170: 1e20 09bd 7d89 42bd 4b30 3abd 2a38 89bc
00000180: 39e2 06bc ecf2 fe3c 2b2f 54bc 8fbb 353b
00000190: abf6 253d 7108 e53c 951d a33c 6771 fbbc
000001a0: 60c4 c0bc 8315 9dbb f99f b93c efdc 0a3b
000001b0: 6cb2 f43c 8bc3 893c c6fd 633b 49d6 323d
000001c0: b9b4 363c 30ee fb3c 0549 13bd 2bd7 053c
000001d0: 2885 ea3c 3f30 3fbd 84e0 83bb 7285 1abd
000001e0: acd9 54bb a438 a13c 1027 0dbd 253b 49bd
000001f0: bebf d43b c594 df39 b27b 0abd 4431 d33c

net.10.weight f4 [64, 128]
0.04079027 0.045519665 -0.033199593 -0.006200008 0.063920386 -0.04962495 -0.09339572 -0.04035138
0.046081517 0.006027895 0.084434174 0.076690435 0.038591318 -0.06569187 -0.08617527 0.0039028977
-0.025351869 -0.015843429 -0.04993676 0.0378465 -0.06642254 0.063394114 -0.07577541 -0.061248433
0.023937492 0.07488151 0.048816416 0.07645286 0.050093323 0.066154815 -0.0049923495 -0.06974814
-0.042847864 -0.0925124 0.00071962853 -0.012719508 0.067244396 0.08246723 0.061985645 0.03789743
-0.01250292 -0.0046278536 -0.008536914 0.0769211 -0.03702385 -0.06924354 0.031115042 -0.03977662
0.049360387 -0.0660061 0.03518431 0.094959594 0.02479158 0.01097648 -0.078431614 -0.055939373
-0.018499833 0.06005239 -0.020734753 0.07345365 0.024345439 0.026730036 0.028066954 -0.046482112
0.0074201575 -0.054238185 0.0775626 -0.055345125 -0.016265543 0.09031123 0.045707986 -0.088357106
0.029695107 -0.05043493 -0.032698892 -0.040714864 -0.017494213 0.009097924 0.041628182 0.08559925
-0.025269592 0.09043431 -0.02430375 -0.073217764 -0.05423272 0.02465415 0.019327423 0.055240575
-0.073782496 -0.011695502 -0.014935475 -0.07326222 -0.020118969 -0.013916348 0.07590818 -0.018020619
-0.04694315 -0.06642789 0.08213991 0.02303265 -0.007748187 0.08346845 0.0077998578 -0.07590586
0.09201455 0.056183323 0.046666417 -0.07487542 0.04127438 -0.019314257 -0.074393004 0.06761644
0.07529208 -0.033793457 -0.021713104 0.059234217 0.07859175 0.03279771 -0.034006573 0.03365885
-0.057672817 0.002092937 0.019063529 -0.025593981 -0.05783893 -0.022823902 -0.018462107 0.043253917
0.02741881 0.022031117 0.07020634 -0.012304083 0.010490226 -0.06334 -0.018387433 0.062881775
0.010280482 -0.008876209 -0.049086504 -0.0041002175 0.085323244 0.0020039817 0.08923464 0.053958032
0.04830958 0.045968864 0.031155137 0.0017722325 -0.037713207 0.0068970965 -0.04297175 -0.032976296
0.03432581 -0.07369825 0.050090797 0.068812065 -0.0050622146 0.015268942 0.065924436 0.032934953
0.065241076 0.0008993205 -0.010206003 0.044290993 -0.09058153 0.019190187 -0.022172673 0.08379701
0.06387859 -0.07291647 0.03496824 -0.042929918 -0.05873525 -0.025155352 -0.02265788 -0.011146238
0.031745847 -0.087287724 0.009325331 -0.013218548 -0.061811365 -0.026824582 -0.024557803 0.048840154
0.020983117 -0.08263894 -0.070516385 -0.061118137 -0.07941691 -0.054150257 0.06768262 -0.031280164
-0.0852812 0.06168633 0.078036726 -0.008998744 0.020796852 0.018384486 0.07437915 0.077614926
-0.07228325 -0.008517565 0.04783863 -0.07134476 0.031515077 -0.05270873 0.029756479 -2.1755048e-05
0.027118282 0.020365866 -0.031906497 0.0074904575 0.084223144 0.016246079 0.04146381 -0.004022273
-0.0007947388 0.08209484 0.055505395 0.027344884 0.02718949 0.050986975 -0.07326942 0.0045828116
-0.0084682405 0.08049089 -0.047110405 -0.014370145 0.0743597 0.09335688 0.075525954 -0.062720366
-0.08393344 -0.042522628 -0.064918116 0.055946004 0.04136597 0.041271523 0.054912202 0.060313378
-0.03887352 -0.085699014 -0.0005969434 0.006818724 -0.014218071 0.010939652 -0.036257308 0.0013745505
-0.009910619 0.07343283 0.06400426 0.04475111 -0.0031548254 -0.025562383 0.07646485 -0.07253717
00000000: b313 273d d472 3a3d 4cfc 07bd 7029 cbbb
00000010: b1e8 823d 8843 4bbd 4146 bfbd 7d47 25bd
00000020: f9bf 3c3d a685 c53b d3eb ac3d e00f 9d3d
00000030: ee11 1e3d 7689 86bd a97c b0bd c2c7 7f3b
00000040: b9ae cfbc 14ca 81bc 7d8a 4cbd ee04 1b3d
00000050: 8a08 88bd c6d4 813d 2330 9bbd a3df 7abd
00000060: 8f18 c43c 7a5b 993d b9f3 473d 5193 9c3d
00000070: a82e 4d3d 2d7c 873d dd96 a3bb 1dd8 8ebd
00000080: 3e81 2fbd 2477 bdbd 74a5 3c3a 7c65 50bc
00000090: 6eb7 893d 94e4 a83d a9e4 7d3d 563a 1b3d
000000a0: 0cd9 4cbc 40a5 97bb 6ade 0bbc cf88 9d3d
000000b0: 52a6 17bd 8fcf 8dbd f9e4 fe3c cfec 22bd
000000c0: 1e2e 4a3d 352e 87bd 6c1d 103d 2d7a c23d
000000d0: b617 cb3c b2d6 333c c1a0 a0bd af20 65bd
000000e0: f68c 97bc 7ff9 753d eedb a9bc de6e 963d
000000f0: 1670 c73c f3f8 da3c abec e53c 0764 3ebd
00000100: cb24 f33b dc28 5ebd 24d9 9e3d 92b1 62bd
00000110: 513f 85bc 18f5 b83d 4c38 3b3d 92f4 b4bd
00000120: 2743 f33c db94 4ebd 46ef 05bd a1c4 26bd
00000130: 0650 8fbc 760f 153c 5082 2a3d a94e af3d
00000140: 2d02 cfbc a035 b93d a818 c7bc 32f3 95bd
00000150: 2123 5ebd 80f7 c93c 8b54 9e3c f143 623d
00000160: 471b 97bd 7e9e 3fbc ecb3 74bc 810a 96bd
00000170: 89d0 a4bc 6501 64bc bf75 9b3d fa9f 93bc
00000180: 7647 40bd 580b 88bd f838 a83d f8ae bc3c
00000190: 81e4 fdbb 82f1 aa3d f395 ff3b 8874 9bbd
000001a0: 2072 bc3d 7c20 663d 4925 3f3d 4958 99bd
000001b0: 530f 293d ef38 9ebc 5c5b 98bd 7d7a 8a3d
000001c0: bc32 9a3d 026b 0abd aedf b1bc 949f 723d
000001d0: b6f4 a03d e456 063d 7a4a 0bbd dddd 093d
000001e0: 553a 6cbd a829 093b 1e2b 9c3c 78aa d1bc
000001f0: 84e8 6cbd 31f9 babc d83d 97bc 052b 313d
00000200: 6a9d e03c 9a7a b43c 57c8 8f3d 1197 49bc
00000210: 32df 2b3c 67b8 81bd 3ea1 96bc 29c8 803d
00000220: 776f 283c 856d 11bc ee0e 49bd 1e5b 86bb
00000230: f4bd ae3d 3c55 033b a7c0 b63d 1903 5d3d
00000240: 44e0 453d d949 3c3d 0f39 ff3c 414a e83a
00000250: 2a79 1abd 0a01 e23b 2503 30bd 2712 07bd
00000260: 3899 0c3d 1cef 96bd 022c 4d3d 57ed 8c3d
00000270: efe0 a5bb 962a 7a3c 6403 873d cde6 063d
00000280: 1d9d 853d 61c0 6b3a 1437 27bc 796a 353d
00000290: cf82 b9bd bd34 9d3c 77a3 b5bc c49d ab3d
000002a0: c7d2 823d 3b55 95bd db3a 0f3d 48d7 2fbd
000002b0: 6094 70bd 9912 cebc 059d b9bc b69e 36bc
000002c0: ef07 023d e8c3 b2bd 46c9 183c 9c92 58bc
000002d0: ea2d 7dbd 3abf dbbc 722d c9bc 9d0c 483d
000002e0: c9e4 ab3c 9b3e a9bd e56a 90bd 0357 7abd
000002f0: 55a5 a2bd a9cc 5dbd 2f9d 8a3d a11f 00bd
00000300: e9a7 aebd ceaa 7c3d b8d1 9f3d 786f 13bc
00000310: 295e aa3c 109b 963c 1954 983d 93f4 9e3d
00000320: 3e09 94bd 428d 0bbc 70f2 433d 341d 92bd
00000330: f415 013d 1ce5 57bd dcc3 f33c 9c7e b6b7
00000340: 2927 de3c 51d6 a63c 63b0 02bd 8372 f53b
00000350: 2f7d ac3d 7f16 853c f5d5 293d 45cd 83bb
00000360: 0556 50ba 5721 a83d a059 633d 6102 e03c
00000370: 7ebc de3c b8d7 503d 470e 96bd 692b 963b
00000380: 60be 0abc 68d8 a43d d7f6 40bd c270 6bbc
00000390: e649 983d e431 bf3d 5aad 9a3d 8973 80bd
000003a0: 4ce5 abbd 352c 2ebd caf3 84bd a327 653d
000003b0: 5d6f 293d 540c 293d 9eeb 603d 290b 773d
000003c0: d739 1fbd f782 afbd 327c 1cba 9a6f df3b
000003d0: e9f2 68bc 3a3c 333c 8b82 14bd 432a b43a
000003e0: 2660 22bc f463 963d aa14 833d f14c 373d
000003f0: 30c1 4ebb 3468 d1bc 9a99 9c3d 5e8e 94bd

net.10.bias f4 [64]
-0.01120816 0.012756564 -0.067068025 0.013270197 0.05452609 -0.01607106 0.053219218 0.09862971
0.07310934 0.046319705 0.09820502 0.026946008 0.053585436 0.05434172 0.0011739642 -0.022647979
0.010508258 0.0015820778 -0.07089919 -0.08159888 -0.056339715 0.055245258 -0.09200147 0.02049696
-0.04327732 0.046069678 0.020664595 0.0069159847 0.019824523 -0.013745862 0.041453127 -0.025452232
-0.083560176 0.034075823 -0.05601276 -0.0038401897 -0.040727265 -0.07946153 -0.08335311 -0.06980334
-0.05737673 0.107836634 0.05869679 -0.06575544 -0.026070626 -0.09296426 -0.034811676 0.011169336
0.0014092678 -0.0284133 -0.063072264 0.033965144 0.022231646 -0.08997248 -0.027014278 -0.044607382
0.07559322 -0.030765701 -0.020161573 0.05506523 -0.009050447 -0.016281076 -0.027166732 -0.08141774
00000000: 6ea2 37bc e800 513c f65a 89bd 3e6b 593c
00000010: c056 5f3d 75a7 83bc 65fc 593d 60fe c93d
00000020: 5aba 953d bbb9 3d3d b71f c93d e0bd dc3c
00000030: 677c 5b3d 6c95 5e3d b4df 993a 4188 b9bc
00000040: d42a 2c3c b95d cf3a 9833 91bd 501d a7bd
00000050: 79c4 66bd da48 623d 446b bcbd 3ee9 a73c
00000060: 8f43 31bd 8fb3 3c3d cc48 a93c 7c9f e23b
00000070: 0a67 a23c 5336 61bc c1ca 293d 3381 d0bc
00000080: 9921 abbd 1793 0b3d a36d 65bd b1ab 7bbb
00000090: a2d1 26bd babc a2bd 09b5 aabd 0ef5 8ebd
000000a0: dd03 6bbd 74d9 dc3d 0c6c 703d caaa 86bd
000000b0: 1192 d5bc 0c64 bebd b096 0ebd 97ff 363c
000000c0: 2eb7 b83a 02c3 e8bc 082c 81bd 091f 0b3d
000000d0: 241f b63c 7e43 b8bd 0c4d ddbc 3bb6 36bd
000000e0: 9ed0 9a3d 5a08 fcbc e229 a5bc 148c 613d
000000f0: 5348 14bc e45f 85bc c48c debc 58be a6bd
