py_workflow/model_simulation_validation/optimized_model/comp3_xiaoyuan_others/embedding_model_epoch083.pth (torch, 407308 bytes, 8 tensors)

net.0.weight f4 [32, 1, 3, 3]
0	0xbdec59a7	-0.11540537
1	0x3e57763b	0.21041195
2	0xbe183ff4	-0.14868146
3	0xbea92560	-0.33036327
4	0xbdbc6f31	-0.092008956
5	0x3e0a7a22	0.13523152
6	0x3db20a55	0.08693377
7	0x3e245b83	0.16050534
8	0xbe195219	-0.14972724
9	0xbdb41c9e	-0.08794521
10	0xbd855765	-0.0651081
11	0xbda7180d	-0.08158884
12	0x3d933776	0.07188313
13	0xbc76eb6f	-0.01507078
14	0xbe8bf113	-0.27332363
15	0xbd51b3a5	-0.051196713
16	0xbb9eb62c	-0.004843494
17	0xbe4beefe	-0.19915387
18	0x3e8b2067	0.2717316
19	0xbe5523bf	-0.20814417
20	0xbdda526c	-0.10660252
21	0xbe69e116	-0.2283977
22	0xbe40e135	-0.1883591
23	0x3dc2dd79	0.09514899
24	0xbd7351b5	-0.059404094
25	0x3debbd3a	0.115107015
26	0x3dbcbe6b	0.09216007
27	0x3da3253e	0.07966088
28	0xbe33930d	-0.17536564
29	0xbdea2ad6	-0.114339516
30	0x3e319887	0.17343341
31	0xbe3ffd3b	-0.18748944
32	0xbe5f5e02	-0.21813205
33	0xbdb6a2d8	-0.08917779
34	0x3e2f2fda	0.17108098
35	0xbe23bc8c	-0.15989894
36	0x3e36787e	0.17819402
37	0x3ceeafe3	0.029136604
38	0x3e7c244e	0.24623224
39	0x3e9c9d4e	0.30588764
40	0x3e2c84ed	0.16847582
41	0x3e0808a3	0.13284545
42	0xbe673004	-0.2257691
43	0xbd3bb368	-0.045825392
44	0xbe042072	-0.12903002
45	0xbe3b4be3	-0.18290667
46	0xbe02a52f	-0.12758325
47	0x3c8a5099	0.016884135
48	0x3e6c786b	0.23092811
49	0xbea8bf4b	-0.32958445
50	0x3e8abaa3	0.27095518
51	0xbe36d085	-0.17852981
52	0xbdbdaeac	-0.09261832
53	0x3e1cde94	0.15319282
54	0xbdd1a028	-0.102356255
55	0xbd94b691	-0.07261384
56	0xbd0efeac	-0.034910843
57	0xbdf5ccdf	-0.12001967
58	0x3e7c93da	0.24665776
59	0xbd3897ed	-0.045066763
60	0x3e85afae	0.26110595
61	0x3de25b04	0.11052516
62	0x3e3411ae	0.1758487
63	0x3d85978f	0.06523048
64	0xbc33bb90	-0.010970011
65	0x3db8a71e	0.0901625
66	0xbd3256a2	-0.04353965
67	0xbe6389bd	-0.22220512
68	0x3decba39	0.11558957
69	0x3e1a4c81	0.15068246
70	0xbea17314	-0.3153311
71	0x3ded5ee2	0.11590363
72	0x3e1ce6be	0.15322396
73	0x3e75a839	0.23989953
74	0x3cd9c14f	0.026581435
75	0xbd94134b	-0.07230242
76	0xbe1323a9	-0.14369072
77	0xbb1eb445	-0.0024216336
78	0x3e11eec4	0.14251238
79	0x3e738f94	0.2378524
80	0xbea25af5	-0.3171002
81	0xbe56ee81	-0.2098942
82	0xbe1ad8d2	-0.15121773
83	0x3de9833d	0.11401985
84	0xbe23917c	-0.15973467
85	0xbe86fa49	-0.26362827
86	0xbe4bb0da	-0.19891682
87	0xbe21e80d	-0.15811177
88	0xbcbac5d7	-0.022799416
89	0xbe8f06f9	-0.27935007
90	0xbd557c6d	-0.052120615
91	0x3ea221c2	0.3166638
92	0xbc8ccfeb	-0.017188987
93	0xbe8281b8	-0.25489593
94	0xbe4bd14d	-0.1990406
95	0x3e8adca5	0.27121463
96	0x3d81a097	0.06329458
97	0xbb197e4b	-0.0023421224
98	0xbda99f71	-0.08282364
99	0xbd0c2c60	-0.034222007
100	0xbc853e44	-0.016265042
101	0xbdd5abde	-0.10433172
102	0x3e017597	0.12642513
103	0xbe0d872c	-0.13821095
104	0xbd1bf681	-0.03807688
105	0x3e4e599e	0.20151374
106	0xbd886b57	-0.066610985
107	0x3e4512d3	0.19245462
108	0x3e420370	0.18946624
109	0xbe440bfb	-0.19145195
110	0x3e52dc6a	0.20591894
111	0x3e1600dc	0.14648765
112	0x3e5e09d7	0.21683441
113	0xbcd614fc	-0.026133053
114	0xbe828fb5	-0.25500265
115	0xbd9e8e5b	-0.07741996
116	0x3e991f6b	0.29906783
117	0xbe356bfa	-0.17716971
118	0xbe6488e2	-0.22317842
119	0x3e72557b	0.2366542
120	0xbe6786aa	-0.22609964
121	0x3da5dcf6	0.080987856
122	0x3e5c5344	0.21516138
123	0xbea3e0c6	-0.32007426
124	0x3e805ae5	0.25069347
125	0xbe10d0a3	-0.14142089
126	0xbe110a94	-0.14164191
127	0xbdf5bfa3	-0.119994424
128	0xbe4554f7	-0.19270693
129	0x3e46bf1c	0.1940884
130	0x3de708b3	0.11280956
131	0xbe910528	-0.28324246
132	0xbc025435	-0.007954647
133	0xbe6a9bf0	-0.22911048
134	0x3e48e9b2	0.19620398
135	0x3c6a127c	0.014286634
136	0xbe283e3c	-0.1642999
137	0x3de02276	0.10944073
138	0x3ea9f609	0.33195522
139	0x3d13e566	0.036107443
140	0xbe812281	-0.25221637
141	0xbe589d6b	-0.211538
142	0x3e980d20	0.29697514
143	0x3e76894d	0.24075814
144	0xbdfee623	-0.12446239
145	0x3e4f1a32	0.20224836
146	0xbe4b2c58	-0.19841135
147	0x3db812c8	0.08987957
148	0xbd97d575	-0.074137606
149	0x3e960512	0.29300743
150	0x3e3edf5d	0.18639894
151	0x3d894890	0.06703293
152	0x3eb48864	0.35260308
153	0x3e6cb890	0.2311728
154	0xbe6575b3	-0.2240818
155	0xbda80dee	-0.08205782
156	0xbd17cf15	-0.037062723
157	0xbe50ae55	-0.20379002
158	0xbe56dc1a	-0.209824
159	0x3d904f5d	0.07046387
160	0xbe4f1d7a	-0.20226088
161	0x3e5873a0	0.21137857
162	0xbd2b4551	-0.041814152
163	0xbb4c1b30	-0.0031144135
164	0xbe14cc7b	-0.14531128
165	0xbd6c5dbd	-0.057706583
166	0xbca86543	-0.020556098
167	0xbe498777	-0.19680582
168	0xbea15aaf	-0.315145
169	0xbd18eeee	-0.037337236
170	0x3e51238e	0.2042372
171	0x3eb0623b	0.34449944
172	0xbe377f4a	-0.1791965
173	0x3e0337a6	0.12814197
174	0x3e958162	0.29200274
175	0xbd5b6fcf	-0.053573426
176	0x3e980e3e	0.29698366
177	0x3e928699	0.28618315
178	0xbe5443dc	-0.20729011
179	0xbdc01004	-0.09378055
180	0x3dd11028	0.1020816
181	0x3e647870	0.22311568
182	0xbe93b3a7	-0.28848
183	0xbc16be90	-0.009200707
184	0xbe84d940	-0.25947
185	0x3dccc233	0.09997978
186	0xbe049de3	-0.12950854
187	0x3e5c2dc3	0.21501832
188	0xbe4ef73f	-0.20211504
189	0xbc3f5adb	-0.0116793765
190	0xbd74db2d	-0.059779335
191	0x3df3a240	0.11896181
192	0x3d579dab	0.0526406
193	0x3e46e913	0.19424848
194	0xbe988db1	-0.29795602
195	0x3e677bfa	0.22605887
196	0x3cd9dce6	0.02659459
197	0xbe179e3e	-0.14806458
198	0xbdab1b6a	-0.08354838
199	0xbe885114	-0.26624358
200	0xbe490d38	-0.19633949
201	0x3e1ecc9d	0.15507741
202	0xbe1e09c3	-0.15433411
203	0xbe0ee67e	-0.13955113
204	0x3dec0cab	0.11525854
205	0x3e9b318c	0.3031124
206	0x3de9943e	0.11405228
207	0xbe8657b8	-0.262388
208	0x3da32c26	0.07967405
209	0xbe97335e	-0.29531378
210	0xbc996c91	-0.018728526
211	0xbea5851a	-0.3232811
212	0xbccca8b7	-0.024982793
213	0xbe05520b	-0.13019578
214	0xbe9a18f5	-0.30097166
215	0xbe649a51	-0.22324492
216	0x3ddde036	0.108337805
217	0x3e653731	0.22384335
218	0xbe3faf22	-0.18719152
219	0x3e7ac2d0	0.24488378
220	0xbc82ebec	-0.015981637
221	0x3e81d7e1	0.25360015
222	0xbdbd88d3	-0.09254613
223	0xbe9bb637	-0.30412456
224	0xbea6ece0	-0.32602596
225	0xbe29e1d3	-0.16590051
226	0x3da07b00	0.078359604
227	0xbd190a70	-0.03736347
228	0x3e9ed497	0.31021568
229	0xbdbbaf50	-0.091642976
230	0x3e11d911	0.1424296
231	0xbd3a1276	-0.045427762
232	0xbeac44bc	-0.3364619
233	0xbd8aeef4	-0.06783858
234	0x3e282477	0.1642016
235	0xbbc13da8	-0.0058972426
236	0xbe5564a7	-0.20839177
237	0x3e3f69a5	0.18692644
238	0xbdeae6b8	-0.11469787
239	0x3e6ca7c5	0.23110874
240	0x3db5b828	0.08873016
241	0xbc87ad8f	-0.016562251
242	0xbe5e5388	-0.21711552
243	0xbe37e7dd	-0.17959543
244	0x3ea700ea	0.32617885
245	0x3e05a50a	0.13051239
246	0x3c6ccf1b	0.014453675
247	0xbda94d55	-0.08266703
248	0xbe110622	-0.14162496
249	0xbe9f2963	-0.31086263
250	0x3dccfd9f	0.10009312
251	0x3e4f83a0	0.20265055
252	0xbe63004f	-0.22168086
253	0x3d92ff54	0.07177606
254	0x3e9820e9	0.29712608
255	0x3d38217c	0.04495381

net.0.bias f4 [32]
0	0x3d90dbeb	0.07073196
1	0x3dbb964c	0.09159526
2	0xbe9955bf	-0.29948232
3	0x3e78bcd4	0.24290782
4	0xbc9bb5ab	-0.019007524
5	0xbe5b23e5	-0.21400411
6	0x3d1cfce8	0.038327128
7	0x3e8aed56	0.27134198
8	0x3deca779	0.115553804
9	0xbd3a4f85	-0.045485992
10	0xbe3f557c	-0.18684953
11	0xbdc53624	-0.09629467
12	0x3e050518	0.12990224
13	0x3d5e05c0	0.054204702
14	0xbdcd29d3	-0.10017743
15	0x3dc4c70e	0.09608279
16	0x3dd3173b	0.10307165
17	0xbe811d10	-0.25217485
18	0xbe792868	-0.2433182
19	0xbe7a8704	-0.24465567
20	0xbe19ba35	-0.15012439
21	0x3e6fd6e5	0.2342182
22	0x3e57fb81	0.21092035
23	0xbea9d456	-0.33169812
24	0xbbd376da	-0.006453377
25	0xbd9c82df	-0.07642149
26	0xbd0285e4	-0.03186597
27	0xbe6b1510	-0.22957253
28	0xbdc35edb	-0.095395766
29	0x3e348242	0.17627814
30	0x3dbe79ef	0.09300601
31	0xbeb5d8fa	-0.35517102

net.3.weight f4 [64, 32, 3, 3]
0	0x3b52e196	0.0032177917
1	0x3c819ab1	0.015820833
2	0x3d507c4e	0.050899796
3	0xbda017ba	-0.078170255
4	0xbcaf966a	-0.021434028
5	0x3c0baf4a	0.008525679
6	0x3c8c9e3d	0.017165298
7	0x3cf63a28	0.030057028
8	0x3d281da2	0.041043885
9	0x3bcf0cef	0.0063186805
10	0xbd20c631	-0.03925151
11	0xbcb8813e	-0.022522565
12	0xbd81e1e0	-0.0634191
13	0x3ca628a7	0.020283056
14	0x3c4d2c6a	0.012522796
15	0x3c5ccbff	0.013476371
16	0xbd2c3c89	-0.04204992
17	0xbd6d2158	-0.057893127
18	0xbd423c25	-0.04742064
19	0x3d3370e9	0.04380885
20	0xbd3468a4	-0.044045106
21	0xbdac1998	-0.08403319
22	0xbd38a667	-0.04508057
23	0xbcfc44ce	-0.030794527
24	0x3d389e5a	0.04507289
25	0xba56562c	-0.0008176293
26	0xbcc19bac	-0.0236338
27	0x3d60b3ea	0.05485908
28	0x3ca24922	0.019810263
29	0xbd3a5804	-0.045494094
30	0xbd6fd10f	-0.058548983
31	0xbca3a221	-0.01997477
32	0xbd4e1306	-0.05031111
33	0xbd6f6781	-0.05844832
34	0xbd622180	-0.05520773
35	0xbd7cebfc	-0.06174849
36	0x3ca218d2	0.019787226
37	0xbc95aa5f	-0.018269716
38	0xbbadeb0c	-0.005307561
39	0x3b818be8	0.0039534457
40	0xbcc95c2a	-0.02458008
41	0xbd7ca58c	-0.061681315
42	0x3cf4826a	0.029847343
43	0x3d9712e3	0.07376649
44	0x3d86ddc7	0.065852694
45	0x3ce04a04	0.027379043
46	0xbd437f02	-0.047728546
47	0xbd2c1785	-0.042014617
48	0xbd00a755	-0.03140958
49	0xbc09f26f	-0.008419617
50	0x3d41a289	0.047274146
51	0x3bee5a00	0.0072739124
52	0x3d018880	0.031624317
53	0xbac12aa9	-0.0014737445
54	0xbd53c559	-0.051701877
55	0xbd462027	-0.048370507
56	0x3d128168	0.035767943
57	0xbbeecdde	-0.007287725
58	0xbd46dadc	-0.048548564
59	0x3c886af3	0.01665256
60	0xbd7be856	-0.06150087
61	0xbd9180da	-0.071046546
62	0xbcacef9b	-0.021110347
63	0xbd53d833	-0.051719856
64	0x3cb75b0d	0.022382284
65	0x3cd744c7	0.026277913
66	0xbda13f9e	-0.07873462
67	0xbd1bf813	-0.03807838
68	0xbcb1b192	-0.021691117
69	0x3ca7d04b	0.020485064
70	0xbc8c5310	-0.017129451
71	0xbd2eb504	-0.0426531
72	0xbc8d4a20	-0.01724726
73	0x3d1f57c5	0.038902063
74	0x3d0ecf29	0.034865532
75	0xbd82fb18	-0.063955486
76	0x3c14a315	0.009072085
77	0x3d31a51a	0.043370344
78	0xbc1f2b36	-0.009714892
79	0xbc6d1107	-0.014469392
80	0xbcf689cb	-0.030095002
81	0x3d2a94a8	0.041645676
82	0x3d867228	0.06564742
83	0xbc7b6f02	-0.015346291
84	0x3a5bda62	0.00083867286
85	0xbd8758f1	-0.06608761
86	0xbc904d95	-0.017615119
87	0xbd331b4f	-0.043727215
88	0x3c0c5f26	0.008567607
89	0x3d5228fd	0.05130862
90	0x3d13f2fd	0.036120404
91	0xbcf4b42d	-0.02987107
92	0x3cbf4028	0.023346022
93	0x3ba1940c	0.0049309786
94	0xbd73ee56	-0.059553467
95	0xbd53b4f8	-0.051686257
96	0x3c01ad70	0.007914886
97	0x3c5a439c	0.013321783
98	0xbc81ec14	-0.015859641
99	0xbc192c3a	-0.009348923
100	0x3b306fc5	0.0026922089
101	0x3d164ddc	0.036695346
102	0xbd33f382	-0.0439334
103	0x39a91937	0.00032252978
104	0xbd44ceb2	-0.048048683
105	0x3c510494	0.012757439
106	0xbd19732c	-0.037463352
107	0xbd6d847c	-0.057987675
108	0xbd58b998	-0.05291137
109	0xbb7591e5	-0.0037470993
110	0x3af7e736	0.0018913511
111	0xbd060f96	-0.032729708
112	0xbcbd1141	-0.023079516
113	0xbcde0754	-0.027103104
114	0x3d239392	0.039935656
115	0xbc98d73b	-0.018657317
116	0xbcc8f970	-0.024533004
117	0xbcc17f1b	-0.023620179
118	0xbd432d21	-0.04765046
119	0xbcc0528a	-0.023476858
120	0x3c6db1ee	0.014507754
121	0xbd820026	-0.063476846
122	0x3d105df9	0.03524587
123	0x3d198eb0	0.037489593
124	0xbd77a703	-0.06046201
125	0xbc8bad7c	-0.017050497
126	0xbd0e9b6b	-0.034816187
127	0xbcc403c2	-0.023927573
128	0xbd1662e9	-0.03671542
129	0xbda7ce55	-0.081936516
130	0xbc5875e9	-0.013211706
131	0xbce15fd3	-0.027511513
132	0xbd3cf83f	-0.046135183
133	0xbd325f26	-0.043547772
134	0xbc95855c	-0.018252067
135	0xbd804f0d	-0.06265078
136	0xbd851a44	-0.064991504
137	0xbc042a05	-0.008066659
138	0x3d090014	0.03344734
139	0xbd1f2bc9	-0.038860116
140	0xbc0aa8b8	-0.008463077
141	0xbd6b1fd4	-0.0574034
142	0xbcf7fdee	-0.03027245
143	0xbb93211b	-0.0044900305
144	0xbc3c7987	-0.011503584
145	0x3d0c14b4	0.03419943
146	0xbc856e57	-0.016287966
147	0x39e0b925	0.00042862553
148	0xbd01d013	-0.031692576
149	0xbcf4ed65	-0.029898355
150	0x3d574e95	0.052565176
151	0x3cd7fd7c	0.026365988
152	0xbd249a8f	-0.04018646
153	0xbaf8dbd6	-0.0018986415
154	0xbadd7034	-0.0016894401
155	0x3cdb2111	0.026749166
156	0xbd67758c	-0.056508586
157	0x3c9b3526	0.018946242
158	0xbd80faac	-0.06297812
159	0x3d0fa0a8	0.035065323
160	0xbd67f748	-0.05663231
161	0xbc9b44ee	-0.018953767
162	0x3b86ac10	0.004109867
163	0xbc896665	-0.016772458
164	0xbc8746fd	-0.016513342
165	0xbcbd98d4	-0.023144163
166	0xbda2a790	-0.07942116
167	0xbd76d0f5	-0.06025787
168	0x3b98ed48	0.004666958
169	0xbd581874	-0.052757695
170	0xbd384b61	-0.044993762
171	0x3bc6241d	0.0060467855
172	0x3d0ff05b	0.03514133
173	0x3cccd544	0.025004037
174	0xbce6bf6c	-0.028167449
175	0x3d1f5b86	0.038905643
176	0xbd17fc71	-0.03710598
177	0x3c6f0580	0.014588714
178	0x3d6ff006	0.058578514
179	0x3d06db72	0.032924123
180	0x3d68bd09	0.056820903
181	0x3cdf06c3	0.027224904
182	0x3d0160b6	0.03158637
183	0xbcc6f08f	-0.02428463
184	0xbaef4892	-0.001825588
185	0xbce008ea	-0.027348
186	0xbd2c1559	-0.042012546
187	0xbc729754	-0.014806587
188	0x3c46f0be	0.012142358
189	0xbd3dd6eb	-0.04634754
190	0x3d1e7e14	0.038694456
191	0x3c8e560a	0.017375011
192	0x3d2d1564	0.042256728
193	0x3cc88e1c	0.024481826
194	0xbcab4861	-0.020908536
195	0xbd0a37e2	-0.0337447
196	0xbcc5d6d9	-0.024150299
197	0x3d18633a	0.037204005
198	0x3d091d13	0.033474993
199	0xb99fa115	-0.0003044686
200	0xbd5175c7	-0.05113771
201	0x3ce9ab7f	0.028524159
202	0xbc4e6898	-0.012598179
203	0x3cf596f2	0.029979203
204	0xbc27ec13	-0.010249156
205	0xbcdf1981	-0.02723384
206	0xbd93db74	-0.07219592
207	0x3d073047	0.033005025
208	0xbc4105a9	-0.011781135
209	0x3d599b8b	0.053126853
210	0x3c758140	0.014984429
211	0xbd32859c	-0.04358445
212	0xbcce49b2	-0.025181625
213	0xbd0c05c6	-0.034185193
214	0xbd36d188	-0.04463342
215	0xbd728dfe	-0.059217446
216	0x3b9bff6b	0.004760673
217	0xbdc1fcc9	-0.09472043
218	0xbda2b838	-0.07945293
219	0xbd9a1837	-0.0752415
220	0xbd9ecc69	-0.07753832
221	0xbd9b7893	-0.07591357
222	0x3d07af6c	0.03312628
223	0xbce5de5a	-0.028060127
224	0xbd09e4c1	-0.033665422
225	0xbd7212ca	-0.05909995
226	0x3d234a5d	0.03986584
227	0x3c4944c3	0.0122844605
228	0x3d0b5f74	0.034026578
229	0xbc51e5af	-0.0128111085
230	0xbb36326d	-0.0027801052
231	0x3d64c5ae	0.055852585
232	0xbd1213b6	-0.03566333
233	0xbd3f8569	-0.04675809
234	0xbd44d1a0	-0.048051476
235	0xbd11f815	-0.03563698
236	0x3d281917	0.041039553
237	0xbd454a74	-0.048166707
238	0xbd12ad76	-0.035809956
239	0xbb709e0b	-0.0036715295
240	0x3d801137	0.062532835
241	0x3d6b93e7	0.057514098
242	0x3d7043ed	0.05865853
243	0x3d173af7	0.036921468
244	0x3b765547	0.003758745
245	0x3c57c332	0.013169097
246	0x3cb058c2	0.021526698
247	0xbd689e53	-0.056791615
248	0xbc188d51	-0.009311036
249	0x3ca5ea15	0.02025322
250	0xbbe82d5b	-0.007085485
251	0x3d704a2e	0.058664493
252	0x3cccb868	0.024990276
253	0xbcac6b1d	-0.02104717
254	0xbd65192d	-0.055932213
255	0xbcf9b22e	-0.03048047

net.3.bias f4 [64]
0	0x3cefb1a8	0.029259518
1	0x3b10782a	0.002204428
2	0xbd4d3b20	-0.050105214
3	0xbd08efdf	-0.033431884
4	0x3bdb6c19	0.006696236
5	0xbd844125	-0.06457738
6	0xbd54786c	-0.051872656
7	0x3cd83d9a	0.026396561
8	0x3d5bea56	0.053690277
9	0x3bd43f0f	0.0064772437
10	0x3d0e99b7	0.034814563
11	0xbd3ac365	-0.0455965
12	0x3c5b85e4	0.013398621
13	0xbd34d940	-0.0441525
14	0xbd5580d4	-0.052124813
15	0xbd051483	-0.032490265
16	0x3cbaa15e	0.022782024
17	0xbd68d51a	-0.056843854
18	0xbc76b57f	-0.0150579205
19	0x3d288bad	0.04114883
20	0xbce8a2f0	-0.028398007
21	0x3c0755f1	0.008260236
22	0x3dc555ea	0.096355274
23	0xbc477b3f	-0.01217538
24	0xbc415d18	-0.01180198
25	0xbd2869b5	-0.041116435
26	0x3c942ca9	0.018087702
27	0xbd2a9883	-0.041649353
28	0x3d6ae2a7	0.05734506
29	0xbd15356a	-0.036427893
30	0x3a2106c2	0.00061426696
31	0xbd296c5b	-0.0413631
32	0xbd96a864	-0.07356337
33	0xbd4d48d0	-0.050118268
34	0xbd8ce3f4	-0.06879416
35	0x3d602bbe	0.054729216
36	0x3ca7ee91	0.0204995
37	0xbd108ac7	-0.0352886
38	0x3c926c0c	0.017873786
39	0x3bdfb354	0.0068267975
40	0xbd36767d	-0.044546593
41	0xbc2b2756	-0.01044639
42	0x3d79e67d	0.061010826
43	0xbb889a15	-0.0041687586
44	0x3ceede08	0.029158607
45	0x3cebe0c1	0.028793694
46	0xbcbe01b1	-0.023194166
47	0xbce096ab	-0.027415594
48	0x3d9fe8b6	0.07808058
49	0x3c50c31c	0.01274183
50	0xbd3a6650	-0.04550773
51	0xbcaac98b	-0.020848056
52	0xbd842755	-0.064528145
53	0xbd0e64bb	-0.034764033
54	0x3d7e3f92	0.062072344
55	0xbcd21572	-0.025644992
56	0x3cd532f5	0.026025275
57	0x3c16718c	0.009182345
58	0x3dcef0c0	0.10104513
59	0x3d435025	0.047683854
60	0xbd37bfcf	-0.044860657
61	0xbbb50cee	-0.005525223
62	0xba5a72e6	-0.0008333161
63	0xb9a55756	-0.00031536323

net.6.weight f4 [128, 64, 3, 3]
0	0x3c73c2bd	0.014877972
1	0xbcf4265c	-0.029803447
2	0xbd51ab86	-0.051188968
3	0x3c0fb0d1	0.008770184
4	0x3d1322be	0.035921805
5	0xbc05f8f4	-0.008177031
6	0xbc54afc1	-0.012981356
7	0x3a29b2e0	0.0006473493
8	0xbcce2861	-0.025165739
9	0xbc2ae936	-0.010431578
10	0xbd4269e4	-0.047464266
11	0x3b998bb9	0.0046858457
12	0x3cd04245	0.025422225
13	0xbd058a89	-0.03260282
14	0xbc9dbd2b	-0.019255241
15	0x3c1a7940	0.009428322
16	0x3d39d5a0	0.045369744
17	0x3d0e4c94	0.034741
18	0xbcbea775	-0.02327321
19	0xbcb06d60	-0.021536529
20	0xbcb132a3	-0.02163059
21	0xbb4fe730	-0.0031723492
22	0x3c06a9a7	0.008219159
23	0xbc910454	-0.01770226
24	0xbd13ca65	-0.03608169
25	0xbae2d383	-0.0017305467
26	0x3d209c9a	0.039211847
27	0x3c535e29	0.0129008675
28	0x3c55fab9	0.013060265
29	0x3ccbd741	0.024882914
30	0x3cbe7aa2	0.023251835
31	0x3b46cd6b	0.003033484
32	0xbd193000	-0.037399292
33	0xbcc45b2b	-0.023969254
34	0xbb677812	-0.003531937
35	0xbc8b1758	-0.016978905
36	0x3d236450	0.039890587
37	0xbc198bfa	-0.009371752
38	0x3c8ef37d	0.017450089
39	0xbd4da744	-0.050208345
40	0xbc73c0dc	-0.014877524
41	0xbd391167	-0.04518261
42	0xbcb3d502	-0.021952156
43	0xbd2e7b4a	-0.042598046
44	0x3c61f164	0.013790462
45	0x3b84f01b	0.004056943
46	0xbc91e8d0	-0.017811209
47	0x3c839d91	0.016066344
48	0xbbe12e9b	-0.006872011
49	0x3d2862aa	0.04110972
50	0xbd1ce729	-0.03830639
51	0xbd1e3e64	-0.03863372
52	0xbd0018bc	-0.03127359
53	0xbc42dac1	-0.011892975
54	0x3cc000db	0.023437908
55	0xbc31640b	-0.010827075
56	0xbd3ebadc	-0.04656492
57	0x3c2c49ea	0.010515669
58	0x3c81ca75	0.01584361
59	0xbd3682cf	-0.044558343
60	0xbcafd4ee	-0.021463837
61	0xbcddd799	-0.027080344
62	0x3c7971ae	0.015224857
63	0x3ba810e3	0.005128966
64	0xbd481c49	-0.0488551
65	0xbcf8b29e	-0.030358609
66	0x3d0815b8	0.033223838
67	0x3d2195d8	0.039449543
68	0x3c607b9e	0.013701348
69	0x3b2ac422	0.0026056846
70	0xbcc604e9	-0.024172263
71	0xbc8b499e	-0.017002877
72	0xbc216783	-0.009851339
73	0xbc5cc612	-0.013474958
74	0xbca26f7c	-0.01982855
75	0x3ca3cd84	0.019995458
76	0xbd1294c4	-0.035786405
77	0x3b4c668f	0.003118906
78	0x3d7275c2	0.059194334
79	0x3c86fff9	0.01647948
80	0x3d44201c	0.047882184
81	0x3d5c048c	0.053715274
82	0x3c4d137b	0.012516852
83	0xbc85a56d	-0.016314233
84	0x3c6c340f	0.014416709
85	0xbc62b68c	-0.013837468
86	0x3c90005b	0.017578295
87	0x3d03b91c	0.032158956
88	0x3a604410	0.0008555064
89	0x3ccd9572	0.025095675
90	0x3d2ec397	0.042666998
91	0xbd012dd7	-0.031537857
92	0x3d33be6e	0.04388278
93	0x3bef8762	0.00730984
94	0x3cafba34	0.021451093
95	0x3cfbdacd	0.03074398
96	0x3ca7d8a3	0.020489043
97	0xbbcd8913	-0.006272444
98	0xbbcd28f9	-0.006260988
99	0xbd174382	-0.036929615
100	0xba91226a	-0.0011072878
101	0xbce89403	-0.02839089
102	0x3c1424b2	0.009041952
103	0xbcde902b	-0.027168354
104	0x3d2a4bdb	0.041576248
105	0xbcb1f60d	-0.021723771
106	0xbc655721	-0.013997824
107	0xbd223c24	-0.039608136
108	0xbca51d66	-0.02015562
109	0xbcd9259e	-0.026507195
110	0x3d2b8379	0.04187343
111	0x3d34baf8	0.04412362
112	0xbcf1e130	-0.029526323
113	0xbc82ce80	-0.015967607
114	0xbd07ea8c	-0.033182666
115	0xba88f2a0	-0.0010448284
116	0x3d099a02	0.03359414
117	0x3c030eac	0.0079991035
118	0xbd6daaf3	-0.058024358
119	0xbd3e042e	-0.046390705
120	0x3d596b76	0.053081
121	0xba28de29	-0.0006441796
122	0x3d528286	0.051394008
123	0xbc65368e	-0.013990058
124	0x3c408162	0.011749597
125	0x3987f444	0.000259312
126	0x3c78eea6	0.015193617
127	0xbcd88256	-0.026429337
128	0xbc9f33fc	-0.019433968
129	0xbcfefe85	-0.031127224
130	0xbc5d4832	-0.013505982
131	0x3b4125b7	0.0029471943
132	0x3d0b28df	0.033974525
133	0xbd069b53	-0.032862972
134	0xbceba4c7	-0.028765095
135	0x3ab94fbf	0.0014138146
136	0xbaa0f041	-0.0012278632
137	0xbd00d93a	-0.031457163
138	0x3c04d8aa	0.008108297
139	0x3d03a2bb	0.032137614
140	0xbcaeef10	-0.021354228
141	0xbc993d9d	-0.018706137
142	0xbd54c1cd	-0.051942635
143	0xbce40665	-0.02783508
144	0x3d26d284	0.040728107
145	0xbcfd4e97	-0.030921264
146	0x3c0a6379	0.008446568
147	0x3d05f486	0.0327039
148	0x3c936a83	0.017995125
149	0xbcb30960	-0.021855056
150	0x3cbcce78	0.02304767
151	0x3d34f7ec	0.04418175
152	0xbb8a9947	-0.004229698
153	0xbbc6c29b	-0.0060656792
154	0xbcd7b8c7	-0.026333226
155	0xbcd031d0	-0.025414377
156	0x3c3f917e	0.011692403
157	0x3d253cbd	0.040341128
158	0x3b46426f	0.0030252
159	0xbc867b66	-0.016416263
160	0xbd5ce587	-0.05392983
161	0xbcfb3127	-0.030663086
162	0xbcd8d475	-0.026468495
163	0x3b2bef7e	0.0026235278
164	0xb9d3f77d	-0.0004042945
165	0x3bc829f9	0.006108519
166	0xbbdcc29c	-0.0067370664
167	0xbd00f9a4	-0.031488076
168	0xbc7d9809	-0.015478143
169	0xbab33f8f	-0.0013675558
170	0x3d10ba49	0.035333905
171	0xbd090175	-0.033448655
172	0xbcd7ad49	-0.026327746
173	0x3d3128e9	0.043251906
174	0xbc1b9029	-0.00949482
175	0xbcc8e9ee	-0.024525609
176	0x392b81cd	0.00016356185
177	0xbcf9c62e	-0.030490007
178	0x3c0e8ae7	0.008700109
179	0xbb24797a	-0.002509682
180	0x3c3294c0	0.010899723
181	0x3bf7348a	0.007544105
182	0x3d449307	0.04799178
183	0x3ca0a6d9	0.01961081
184	0x3c732430	0.014840171
185	0x3974813e	0.000233178
186	0x3c03bc08	0.008040436
187	0x3d347028	0.044052273
188	0xbbd7932f	-0.006578825
189	0x3d07d4b3	0.03316183
190	0xbd00be87	-0.0314317
191	0x3ba7211e	0.0051003834
192	0x3c526b8c	0.012843024
193	0xbc5023ae	-0.012703819
194	0xbc920acb	-0.017827412
195	0xbcdd6caa	-0.027029354
196	0x3ce32695	0.027728358
197	0xbd3f016a	-0.046632208
198	0x3d3d114e	0.04615908
199	0x3d17c18b	0.03704981
200	0x3dbfa9fe	0.09358595
201	0x3cae1896	0.021251958
202	0x3d44c2f7	0.048037495
203	0xbd198ea5	-0.037489552
204	0x3a3cfd41	0.00072093686
205	0x3cfdcf54	0.03098265
206	0x3d375b6d	0.044764925
207	0x3c7319a7	0.014837659
208	0x3c9e4ad7	0.019322796
209	0xbc0268e8	-0.007959582
210	0x3c8a5f37	0.016891105
211	0x3d28f54b	0.041249555
212	0xbb56f4e7	-0.0032799782
213	0xbc4fef88	-0.012691386
214	0x3c7e3326	0.015515124
215	0xbcbedfe3	-0.023300117
216	0x3c5df316	0.013546726
217	0xbc888b71	-0.016668053
218	0xbc73aa84	-0.014872197
219	0x3c242586	0.010018712
220	0x3d433191	0.047654692
221	0x3ccd9318	0.025094554
222	0x3c7b3bf2	0.015334116
223	0xbc3e9047	-0.011631078
224	0x3c0a2cff	0.0084335795
225	0xbbb30cf8	-0.0054641925
226	0xbc8867d0	-0.016651064
227	0xbc551224	-0.013004813
228	0xbcf0c341	-0.02938998
229	0x3cfe2187	0.031021846
230	0x3d21e15c	0.03952156
231	0xba195285	-0.0005848783
232	0x3ba77fc6	0.0051116673
233	0x3d48eb82	0.049052723
234	0x3ccd91a2	0.025093857
235	0x3c4e6a05	0.012598519
236	0x3bf0091a	0.0073253037
237	0xbc94b5d8	-0.018153116
238	0xbd1a16bd	-0.03761934
239	0xbcb5dde5	-0.022200534
240	0x3c01da13	0.007925528
241	0xbb996732	-0.0046814913
242	0xbc4f702e	-0.012661023
243	0x3d2dd9bf	0.042443987
244	0xbbba2a87	-0.005681339
245	0x3c60a2d5	0.013710697
246	0xbcdf5b7e	-0.027265307
247	0xbbb4da4a	-0.005519186
248	0xbd0b4c26	-0.034008168
249	0xbc53ff59	-0.012939298
250	0x3d294738	0.041327685
251	0x3b80361b	0.0039127
252	0x3c4f12bd	0.012638745
253	0x3abd132e	0.0014425272
254	0x3d116757	0.035498943
255	0x3d3c48ac	0.045967743

net.6.bias f4 [128]
0	0x3d26ee3f	0.040754553
1	0x3afacfc8	0.001913541
2	0xbd044621	-0.032293443
3	0xbd0fa2e2	-0.035067447
4	0x3c81ce68	0.015845492
5	0x3d2573ac	0.040393516
6	0xb9bba8ba	-0.0003579313
7	0x3c9d8f50	0.019233376
8	0x3cf98636	0.030459505
9	0xbd420720	-0.047370076
10	0x3d55b2b8	0.052172393
11	0xbba9bb80	-0.0051798224
12	0xbcb8a14c	-0.02253785
13	0xbd15f9fa	-0.03661535
14	0xba55f281	-0.0008161441
15	0xbd40a0ec	-0.047028467
16	0xbd35c85c	-0.04438053
17	0x3ce5736f	0.028009145
18	0x3c54433b	0.012955482
19	0xbc2a4a41	-0.01039368
20	0xbcecfbce	-0.028928664
21	0xbc8f3ffb	-0.017486563
22	0xbcfe0a04	-0.031010635
23	0xbc3381dc	-0.010956254
24	0xbd0b711d	-0.03404342
25	0x3c631aaa	0.013861338
26	0x3cb1fd50	0.021727234
27	0x3ce881d3	0.028382218
28	0x3c58d864	0.013235185
29	0x3d019416	0.031635366
30	0x3cb50146	0.022095334
31	0xbc982a98	-0.018574998
32	0x3a8d12a4	0.0010763002
33	0x3cae3d1f	0.02126938
34	0x3be4319e	0.0069639226
35	0x3a3cb949	0.00071992405
36	0x3d31025a	0.043215133
37	0x3c5f4aa6	0.013628637
38	0x3c5ffdb4	0.013671327
39	0x3caf83c4	0.021425135
40	0x3c78bae0	0.015181273
41	0xbb41ed44	-0.0029590884
42	0xbd24b2bc	-0.040209517
43	0x3d1e2379	0.038608048
44	0x3c63f3c7	0.0139131015
45	0x3d5cd0b7	0.053909983
46	0xbb8e93f6	-0.0043511344
47	0x3d526588	0.05136636
48	0xbca3c338	-0.019990548
49	0x3c020eae	0.00793807
50	0xbc6ef88c	-0.014585625
51	0xbcb9fddf	-0.022704063
52	0x3cab5a82	0.02091718
53	0x3995a029	0.00028538823
54	0xbb36dc1d	-0.0027902194
55	0x3b472125	0.0030384746
56	0xb962876c	-0.00021603488
57	0xbc763e93	-0.015029567
58	0x3b700f41	0.0036630186
59	0xbd72d695	-0.059286673
60	0xbcda1896	-0.026623052
61	0xbd23f401	-0.040027622
62	0x3d21db65	0.03951587
63	0xbc358dea	-0.011081198
64	0xbb801e3e	-0.003909855
65	0xbd268f3c	-0.040663943
66	0x3c9344f9	0.017977225
67	0x3cd4c74c	0.025973938
68	0xbc1193f1	-0.00888537
69	0x3cd679f4	0.026181199
70	0xbd2b210e	-0.04177957
71	0x3b25fe74	0.0025328668
72	0x3c4187c5	0.011812155
73	0xbcd57c2a	-0.026060183
74	0xbd2270c4	-0.039658323
75	0x3d41f2cd	0.047350693
76	0xbd0b228e	-0.0339685
77	0xbce8723e	-0.028374787
78	0x3ca7dfec	0.020492516
79	0xbb5fb99a	-0.0034137727
80	0xbd103d52	-0.03521473
81	0x3cb8013b	0.022461524
82	0xbc13cd94	-0.009021182
83	0xbd0d71b2	-0.034532256
84	0xbbcd6c05	-0.0062689804
85	0xbbf7e336	-0.0075649275
86	0xbd75eff7	-0.0600433
87	0xbcaf6551	-0.021410616
88	0x3c5e0f33	0.013553428
89	0x3ce91a0f	0.028454809
90	0xbc659eb0	-0.014014885
91	0x3d0155d2	0.031575985
92	0x3d17b092	0.037033625
93	0xbc02f359	-0.007992589
94	0x3d3edda7	0.046598103
95	0xbc8c493a	-0.01712476
96	0xbd2795be	-0.04091429
97	0x3cdee923	0.027210778
98	0xbba2234f	-0.004948057
99	0x3cf8abe1	0.030355396
100	0xba86d028	-0.0010285424
101	0x3ce02c9c	0.027365021
102	0xbc8357bd	-0.016033048
103	0x3ae2a8b3	0.0017292708
104	0x3ce8b1b7	0.028405054
105	0x3b1e7af8	0.0024182182
106	0xbb8f136c	-0.004366329
107	0x3b9629d3	0.0045826226
108	0xbd29a95a	-0.04142127
109	0xbcabd88d	-0.020977283
110	0xbca8139f	-0.020517169
111	0x3bd69cd5	0.0065494576
112	0xbc98e4c5	-0.018663773
113	0xbcfe3bcb	-0.03103437
114	0xbc121916	-0.008917114
115	0xbc05e20f	-0.008171572
116	0x3c34abca	0.011027286
117	0xbc34ae03	-0.011027816
118	0xbcefe794	-0.02928523
119	0xbc8ad408	-0.016946808
120	0xbc09c75b	-0.008409346
121	0xbc91ff6e	-0.017821994
122	0xbd2b7369	-0.04185811
123	0xbcfde8d7	-0.030994816
124	0xbd027273	-0.03184743
125	0xbca0446e	-0.01956388
126	0xbc9c0cc6	-0.01904906
127	0x3d2b38e5	0.041802306

net.10.weight f4 [64, 128]
0	0x3d9cc3b5	0.07654516
1	0x3d66889d	0.05628263
2	0x3caa250a	0.020769615
3	0xbd906228	-0.07049972
4	0xbcc30b33	-0.023809051
5	0x3ca7620c	0.020432495
6	0xbdac56e5	-0.08415011
7	0x3d07d7dc	0.033164844
8	0x3dc46b8d	0.09590826
9	0x3db43c16	0.08800523
10	0x3d8dcf71	0.06924332
11	0xbd8fa702	-0.07014276
12	0xbdad35bc	-0.08457515
13	0xbd27d3a0	-0.040973306
14	0xbd825d6c	-0.06365475
15	0x3c3336e2	0.010938378
16	0x3d0c49e7	0.034250166
17	0xbd20dfe0	-0.039276004
18	0xbcb78ea5	-0.022406885
19	0xbcf3a935	-0.02974377
20	0xbd149239	-0.03627226
21	0x3dba97d5	0.09110991
22	0x3da367d2	0.079787865
23	0x3c6ecdb2	0.014575409
24	0xbdabbdd9	-0.0838582
25	0xbd878b73	-0.06618395
26	0xbcda9270	-0.026681155
27	0xbd05de98	-0.032682985
28	0x3a907634	0.0011021555
29	0xbc6074c5	-0.013699715
30	0x3d855319	0.0650999
31	0x3dd52ad9	0.10408563
32	0xbd1087be	-0.035285704
33	0x3d55b0e4	0.05217065
34	0x3c19317f	0.00935018
35	0xbce4bb84	-0.027921446
36	0x3d4f850c	0.050663993
37	0x3d835023	0.06411769
38	0x3dad0988	0.084490836
39	0xbcfeb797	-0.031093402
40	0xbcb6165b	-0.022227457
41	0xbc8bd6a7	-0.017070128
42	0x3cafae15	0.021445313
43	0x3da7554a	0.081705645
44	0x3d8b6581	0.0680647
45	0x3dc0dbd7	0.09416931
46	0xbd8d1071	-0.068879016
47	0x3da4428f	0.080205075
48	0xbdb3f103	-0.08786204
49	0xbd7fb26a	-0.06242601
50	0x3d8338c8	0.064073145
51	0x3c05a943	0.008158031
52	0xbc436fd8	-0.011928521
53	0xbdb99e5e	-0.09063409
54	0xbcc63a4a	-0.024197716
55	0xbdc1c21d	-0.09460852
56	0xbc929897	-0.017895026
57	0x3d47f7fe	0.04882049
58	0x3d75ca3c	0.06000732
59	0xbdbcef8c	-0.092253774
60	0x3c9154a3	0.017740553
61	0x3db2f2d7	0.08737724
62	0x3d93c16f	0.07214629
63	0xbcffd138	-0.031227693
64	0x3d0bab1d	0.034098733
65	0x3c2b0a49	0.010439464
66	0x3da9e5f6	0.08295815
67	0xbc85be47	-0.016326083
68	0xbd830154	-0.06396738
69	0x3b8e288b	0.004338329
70	0x3db153be	0.08658551
71	0x3dab8d59	0.08376569
72	0xbc9fdc0b	-0.019514104
73	0x3d390a25	0.04517569
74	0xbdba45f9	-0.090953775
75	0x3cccd6da	0.025004793
76	0xbd233b53	-0.039851498
77	0xbb0cb3b0	-0.0021469407
78	0x3da54eb6	0.080716535
79	0xbcd99d91	-0.026564391
80	0xbcf30cbf	-0.029669164
81	0xbd4f06b9	-0.05054352
82	0x3d735aa0	0.0594126
83	0xbd80e481	-0.06293584
84	0x3cdd56cd	0.027018929
85	0xbcd1238f	-0.025529651
86	0x3d97e65c	0.074169844
87	0x3d48ef3b	0.049056273
88	0x3d05b228	0.032640606
89	0xbdac4e31	-0.08413351
90	0x3d8fe68e	0.07026397
91	0x3d798da1	0.060926083
92	0x3b022087	0.0019855814
93	0x3d3e3cd9	0.046444748
94	0x3db63e84	0.08898643
95	0xbdafbd9c	-0.08581087
96	0xbc6bb231	-0.014385746
97	0x3ddb3037	0.107025556
98	0x3d8bc2a1	0.06824232
99	0x3dc158d9	0.094407745
100	0xbcc608e1	-0.024174156
101	0x3dacb86c	0.08433613
102	0xbd2eea26	-0.04270377
103	0xbda8de8c	-0.082455724
104	0x3d6ce7e6	0.057838343
105	0xbd810f5f	-0.0630176
106	0x3da44e08	0.08022696
107	0x3dabcc60	0.08388591
108	0x3d9f3bd0	0.0777508
109	0x3cc27462	0.023737136
110	0x3daafc28	0.08348876
111	0xbd68dd9e	-0.056851976
112	0x3d2d07bc	0.042243704
113	0x3cd6a777	0.0262029
114	0x3c48cabd	0.012255368
115	0xbd854384	-0.06507018
116	0xbd541fb0	-0.051788032
117	0xbd7dc22c	-0.061952755
118	0x3b6103c5	0.0034334522
119	0x3d88aca9	0.06673557
120	0x3d9780a9	0.07397587
121	0x3c74dc54	0.014945108
122	0x3cab505a	0.020912338
123	0xbdababe0	-0.08382392
124	0xbd8a7b96	-0.067618534
125	0xbcc19058	-0.023628399
126	0x3cf56260	0.029954135
127	0xbc9863c5	-0.018602261
128	0x3d1eed76	0.03880068
129	0x3db9d5fd	0.09074018
130	0xbc82fd6e	-0.015989985
131	0x3ce509f5	0.02795885
132	0x3d6888c7	0.056771066
133	0x3d2b6592	0.041844912
134	0x3d00114a	0.031266488
135	0x3d26373d	0.040580023
136	0x3d8e0167	0.06933861
137	0xbd6c501a	-0.05769358
138	0x3cb10753	0.021609938
139	0xbd910a73	-0.07082071
140	0xbc32d08c	-0.010913979
141	0xbda84714	-0.08216682
142	0xbcee95a9	-0.029124098
143	0xbd2093f0	-0.039203584
144	0x3dacdb9d	0.084403254
145	0xb9eafa67	-0.00044818522
146	0xbc8d0f54	-0.017219223
147	0xbd5ea4e4	-0.05435647
148	0xbd65b79a	-0.0560833
149	0x3ca992ed	0.020699942
150	0xbcbb6056	-0.022873085
151	0x3cb7d207	0.022439016
152	0xbd57d59d	-0.052693952
153	0x3c85130b	0.016244432
154	0x3d11a6c1	0.03555942
155	0xbd730780	-0.059333324
156	0x3dab21c7	0.08356052
157	0xbce2c1ab	-0.027680239
158	0xbd3cd399	-0.046100233
159	0xbd8152f1	-0.06314648
160	0xbd00bcac	-0.03142993
161	0x3d360382	0.04443694
162	0x3dcb3535	0.09922258
163	0xbdb36450	-0.087593675
164	0xbda4a0bc	-0.0803847
165	0x3c304d0c	0.010760557
166	0x3b7befb9	0.0038442446
167	0xbdadb1cd	-0.084811784
168	0x3d68c2a1	0.056826238
169	0xbd3e01d5	-0.046388466
170	0x3d74e065	0.05978431
171	0xbe03d6f9	-0.12874974
172	0x3dadfc31	0.08495367
173	0xbd5c6175	-0.05380388
174	0xbd97af8d	-0.074065305
175	0xbd9d0eb3	-0.07668819
176	0x3d097c62	0.033565886
177	0x3d65f4f5	0.056141812
178	0xbd9f685f	-0.07783579
179	0xbda30304	-0.079595596
180	0xbd172c6a	-0.03690759
181	0x3cf06691	0.029345782
182	0x3d98b177	0.07455724
183	0xbd1487ec	-0.036262438
184	0x3bb2b9b2	0.0054542655
185	0xbb9d7b7c	-0.0048059803
186	0x3d0d49af	0.0344941
187	0xbd444e66	-0.04792633
188	0x3cc7a734	0.02437172
189	0xbcabf466	-0.020990562
190	0xbd36ca35	-0.044626433
191	0x3d1d2287	0.038363006
192	0x3d230fda	0.03981004
193	0xbd1b28d0	-0.03788072
194	0x3c597441	0.013272346
195	0xbdd344a3	-0.10315826
196	0x3c87c705	0.016574392
197	0xbd038360	-0.03210771
198	0x3d49d474	0.049274877
199	0x3d87b3b3	0.06626072
200	0x3b880171	0.0041505625
201	0xbd9b0b28	-0.07570487
202	0xbd0c4f45	-0.034255285
203	0xbd465456	-0.048420273
204	0xbcc041c4	-0.02346886
205	0x3dc9310e	0.098238096
206	0xbd881fa2	-0.066466585
207	0xbde0a26f	-0.10968482
208	0x3cdd8edf	0.027045665
209	0xbd906d70	-0.070521235
210	0xbda051ae	-0.07828079
211	0xbd40a302	-0.047030456
212	0x3d1ed2e7	0.03877535
213	0x3d87ffea	0.066406086
214	0xbc5b0124	-0.013366971
215	0x3d4f4a9a	0.050608255
216	0xbd3b1132	-0.045670696
217	0x3da3a40c	0.07990274
218	0x3d3e7757	0.04650053
219	0x3d25bafd	0.04046153
220	0x3d524a67	0.051340487
221	0xbcc776e1	-0.024348678
222	0xbc689965	-0.014196728
223	0x3da68303	0.08130457
224	0x3c1048c4	0.008806411
225	0xbd1266f5	-0.03574272
226	0x3d4ac17c	0.049500927
227	0x3d05d848	0.032676965
228	0xbd52fbf0	-0.051509798
229	0xbd8d2fa2	-0.06893851
230	0x3caddd9f	0.021223841
231	0xbc8212f9	-0.015878187
232	0x3d88b825	0.06675748
233	0xbcbf6065	-0.023361394
234	0xbdafb3f6	-0.08579247
235	0x3b85aa87	0.0040791663
236	0xbd6dcdfd	-0.058057774
237	0xbdae771e	-0.085188136
238	0xbd5470a2	-0.051865228
239	0x3b1142f4	0.0022165151
240	0xbdd8a3ef	-0.10578143
241	0x3d993b68	0.07482034
242	0xbd72ca58	-0.059275
243	0x3cce3800	0.025173187
244	0x3bcc5667	0.006235886
245	0xbae6be99	-0.001760441
246	0xbd77caf7	-0.060496297
247	0x3d10e9af	0.035379108
248	0xbd38809e	-0.045044534
249	0xbd0239bd	-0.031793345
250	0x3d5b7fb0	0.05358857
251	0xbd6f8227	-0.058473732
252	0xbc337ddb	-0.010955299
253	0x3ca413ba	0.020028938
254	0x3dacc581	0.084361084
255	0xbd3de265	-0.046358485

net.10.bias f4 [64]
0	0xbcd55d75	-0.02604554
1	0x3d9f131e	0.07767318
2	0xbda935a9	-0.08262188
3	0xbb2eab53	-0.002665241
4	0x3d80d3d1	0.06290401
5	0xbb0db4d5	-0.0021622677
6	0x3d9237f5	0.07139579
7	0x3d505e5f	0.05087125
8	0x3d64eb80	0.055888653
9	0x3d9beb44	0.07613233
10	0xbc2cef1d	-0.010555056
11	0x3c0ce42c	0.008599322
12	0x3d8db00e	0.069183454
13	0xbd25b2d3	-0.040453743
14	0xb8e1acba	-0.00010761009
15	0xbd2f524b	-0.04280309
16	0x3d6756e8	0.056479365
17	0x3d25d552	0.04048664
18	0x3d9945a2	0.074839845
19	0x3d0d6dc8	0.034528524
20	0xbdbe9329	-0.09305412
21	0x3c91d847	0.017803324
22	0xbb372fa8	-0.002795199
23	0x3cad4117	0.021149201
24	0xbd5cad6f	-0.053876337
25	0x3d59a4c5	0.053135652
26	0x3d9774d4	0.0739533
27	0x3befcad1	0.007317879
28	0x3db3d13a	0.08780141
29	0xbd0b27ea	-0.033973612
30	0x3d5d91f0	0.054094255
31	0x3ad4d69a	0.0016238273
32	0x3d8b911a	0.06814785
33	0x3d972039	0.07379193
34	0xbc21b02e	-0.009868665
35	0xbd88d158	-0.06680554
36	0xbd591e6e	-0.053007536
37	0xbd60dc13	-0.05489738
38	0x3c850d55	0.016241709
39	0x3b913aca	0.004432057
40	0x3d8ee6ea	0.06977637
41	0xbd0068e3	-0.031350028
42	0x3cf3ba83	0.029752022
43	0xbd43482b	-0.047676247
44	0xbda2a908	-0.079423964
45	0x3daa28ac	0.08308539
46	0x3c9a4bbf	0.018834947
47	0xbd21fbc2	-0.039546736
48	0x3d3edd20	0.0465976
49	0x3bf6ef01	0.0075358157
50	0xbd6e3db7	-0.058164325
51	0xbd8547cd	-0.065078355
52	0xbd997cef	-0.07494532
53	0x3c6baaef	0.014384015
54	0x3d419d7d	0.047269333
55	0xbd607258	-0.054796547
56	0xbc9eaefa	-0.019370545
57	0x3ce2804f	0.027649073
58	0x3ad4442b	0.0016194632
59	0x3d190cd2	0.037365742
60	0x3d9c62d7	0.0763604
61	0xbda45def	-0.08025729
62	0x3dc4a758	0.09602231
63	0xbca411f7	-0.020028098
