py_workflow/model_simulation_validation/optimized_model/comp3_xiaoyuan_others/embedding_model_epoch097.pth (torch, 407308 bytes, 8 tensors)

net.0.weight f4 [32, 1, 3, 3]
00000000: 3099 eebd d5a0 563e cc75 19be 4b73 a7be
00000010: 3ed7 b2bd 6865 103e b126 ab3d c8cd 203e
00000020: f123 1dbe 7043 b2bd 444a 83bd 45e4 a4bd
00000030: 3e83 913d e398 88bc bc19 8dbe 45e7 44bd
00000040: 863c 34bb 6e8e 4abe 7eec 8a3e 8105 56be
00000050: 85c4 dcbd 4b30 69be 6800 40be bca1 c53d
00000060: ea9b 77bd 686f ea3d e55c bb3d ded3 a13d
00000070: 2018 34be 470d ebbd 98fc 333e 6a18 3ebe
00000080: 1cb2 5dbe 2801 babd 5a11 2d3e 97f4 25be
00000090: 1d60 353e 2ce9 e43c 7ab7 7a3e 423c 9e3e
000000a0: 41d7 2f3e 6d4e 0c3e 5e7c 68be 0c0c 40bd
000000b0: db6d 05be d63e 3abe 5fa6 01be a49c 933c
000000c0: 15ad 6b3e 4962 a9be 826c 8a3e c662 34be
000000d0: e227 b8bd 8b10 203e 718e cebd 4ec1 91bd
000000e0: 7997 09bd 44f5 f6bd 80cb 7b3e c510 3abd
000000f0: 0dfe 853e 92b2 e33d 5411 353e e23c 883d
00000100: 5970 22bc 9636 ba3d e59e 38bd e330 65be
00000110: e55e ea3d d4d3 183e bc2f a2be 3263 ea3d
00000120: b839 1e3e 5cf8 763e 6782 e33c 58d4 91bd
00000130: 5f37 12be 68e9 04bb eeea 0e3e 892e 703e
00000140: 2a46 a4be c097 52be 1fa8 15be 0931 f73d
00000150: 87fc 23be e426 87be 75d6 4bbe 86d8 23be
00000160: 9782 cbbc 67f4 8fbe ce5b 55bd 8b26 a23e
00000170: 901b 90bc 4bb6 82be 2eff 4bbe 4200 8b3e
00000180: fa03 7f3d 424e 62bb 276a abbd 5391 03bd
00000190: 701e 66bc 5f15 d1bd b2d0 043e 35ef 09be
000001a0: e902 0fbd ed10 4e3e 0ea9 88bd 215b 443e
000001b0: 6bf4 423e ad13 43be 28c0 533e da56 183e
000001c0: edf3 603e a2fd b3bc f756 83be 8c69 a4bd
000001d0: 746a 963e f24c 33be 5764 62be e295 743e
000001e0: 0eeb 68be 8aad a43d d398 5b3e 5eff a1be
000001f0: 6dce 823e 6360 0cbe 3ed2 10be 1353 f5bd
00000200: 79ed 44be f6ff 463e d51d e73d ae0a 91be
00000210: 6862 f5bb d727 6abe 46b1 493e cd4a 783c
00000220: 0b52 27be c0cd e13d 4ba8 a93e ba74 123d
00000230: 9a17 81be 806c 57be b54a 983e 3016 773e
00000240: e3e3 fabd b538 513e 0598 48be 5596 b03d
00000250: 01bd 9ebd 232e 943e 00c1 443e 72d5 933d
00000260: df67 b63e 2f29 6e3e 0526 64be b10b a6bd
00000270: 7374 16bd f8e2 4fbe f2d3 55be 1dcb 873d
00000280: 7022 53be a4e3 543e d607 1dbd 9afe 6639
00000290: 72b8 11be f172 68bd cbf7 9ebc 5923 48be
000002a0: 08a9 a2be a57a 25bd 766f 4e3e b99f b03e
000002b0: d286 36be 07f9 033e 8160 963e bed3 53bd
000002c0: 1bfd 983e 1a1b 913e a9fa 55be d2d4 c2bd
000002d0: d75f d33d d0c4 653e 8e3b 93be 5291 17bc
000002e0: 9bc0 84be f2e4 cc3d 3cc9 05be e956 5a3e
000002f0: c414 51be eec3 6abc 4d76 7dbd c68e f13d
00000300: c908 5d3d 04d9 473e 6645 98be 8f7e 653e
00000310: 8f28 c33c 073d 1cbe e63a a9bd b4dd 87be
00000320: 0320 48be 136a 1b3e 3faa 20be f53a 11be
00000330: eba8 ed3d 66a4 9b3e 30d3 eb3d 1ad9 85be
00000340: 1d37 a53d 70c5 96be 30df a2bc 6484 a6be
00000350: 69f7 d9bc fd11 04be 9dbc 99be 362c 63be
00000360: 8e88 e53d ffe8 683e 0a54 3cbe 05bc 7b3e
00000370: 37cb 74bc c670 823e 41bb bfbd 5b47 9cbe
00000380: d656 a7be a521 29be a2a0 a23d d74e 14bd
00000390: e38d 9e3e e336 bdbd 9a02 113e 55eb 2bbd
000003a0: 5ecb aabe fc69 83bd e4b7 283e bd36 b2bb
000003b0: 7d24 55be d352 413e 3f76 e7bd b51a 6e3e
000003c0: 6225 b93d 70ea 75bc 1a9b 5cbe fe7d 37be
000003d0: 5b6f a73e 0b57 063e fc68 6c3c bb3a a9bd
000003e0: db0b 11be 29a2 9fbe 5796 cb3d b71f 4f3e
000003f0: 36a3 65be 7314 8c3d 679e 963e 7cc3 3f3d
-0.11650312 0.2095979 -0.14986342 -0.3270515 -0.087324604 0.14101183 0.08356989 0.157035
-0.15345742 -0.08704269 -0.064106494 -0.080513515 0.071051106 -0.016674465 -0.27558696 -0.04807212
-0.0027501895 -0.19780895 0.27133554 -0.20900537 -0.107796706 -0.22772329 -0.18750155 0.09649989
-0.060451426 0.1144703 0.091485776 0.079017386 -0.17587328 -0.11477142 0.17576826 -0.18564
-0.21649975 -0.09082252 0.1690115 -0.16206585 0.17712446 0.027943216 0.24484053 0.30905348
0.17171957 0.13701792 -0.22703692 -0.04688649 -0.13030188 -0.18188033 -0.12661122 0.018019028
0.23015244 -0.33082798 0.2703591 -0.17615804 -0.08991982 0.1563131 -0.10085762 -0.07116948
-0.03359172 -0.120584995 0.24589348 -0.04542615 0.26170388 0.11118044 0.17682391 0.066522375
-0.009914481 0.09092443 -0.04507341 -0.2238193 0.11443881 0.14924556 -0.31677043 0.11444701
0.15451705 0.24118179 0.027772142 -0.071205795 -0.14278935 -0.0020280723 0.13956806 0.23455252
-0.3208478 -0.205657 -0.14614914 0.120698996 -0.160143 -0.2639686 -0.19906028 -0.16000566
-0.024842544 -0.28116152 -0.052089505 0.3167003 -0.017591268 -0.25529703 -0.19921562 0.27148634
0.06225965 -0.0034531509 -0.08369856 -0.032121014 -0.014045343 -0.10209154 0.12970236 -0.13470156
-0.034914885 0.20123644 -0.066728696 0.19175388 0.1903855 -0.19050474 0.2067877 0.14876881
0.2196805 -0.021971527 -0.25652286 -0.08027944 0.29378092 -0.17509821 -0.22108589 0.23885301
-0.22745916 0.080409124 0.21445017 -0.31640142 0.25548115 -0.13708644 -0.14142701 -0.11978736
-0.19231214 0.19433579 0.11284987 -0.2832846 -0.0074885376 -0.2286676 0.1969653 0.015154553
-0.1633989 0.11025572 0.3313621 0.03575585 -0.2521332 -0.21037483 0.29744497 0.24129558
-0.12250497 0.20431788 -0.19589241 0.086224236 -0.077508934 0.2894145 0.19214249 0.07218446
0.35626122 0.23257898 -0.22280128 -0.08107699 -0.03673215 -0.20301425 -0.20881632 0.06630538
-0.20618606 0.20789963 -0.03833755 0.00022029356 -0.14230517 -0.05675024 -0.019405266 -0.19544734
-0.31769586 -0.040400166 0.20159706 0.3449686 -0.17824867 0.12887965 0.29370502 -0.051715605
0.29880604 0.2834099 -0.208964 -0.095132485 0.103210144 0.2243836 -0.28756374 -0.009250956
-0.25928196 0.10004605 -0.13065046 0.21322216 -0.20418078 -0.01432894 -0.0618804 0.1179481
0.053963456 0.19516379 -0.29740447 0.2241156 0.02382305 -0.15257655 -0.08263187 -0.26536334
-0.19543462 0.15177183 -0.15689944 -0.14182647 0.11604484 0.30398864 0.1151489 -0.26142198
0.08067153 -0.29447508 -0.019881815 -0.3252288 -0.026607232 -0.12897487 -0.30026713 -0.22184834
0.11207686 0.22745131 -0.18391433 0.24583443 -0.014941028 0.25476664 -0.09361888 -0.3052319
-0.32683438 -0.1651674 0.079407945 -0.036208 0.30967626 -0.092389844 0.14161149 -0.041972477
-0.33358282 -0.06416699 0.16476399 -0.005438654 -0.208147 0.18879251 -0.113018505 0.23252375
0.09040333 -0.015009508 -0.21543542 -0.17919156 0.32702145 0.13119142 0.014429327 -0.08263155
-0.14164679 -0.31178406 0.099407844 0.20226942 -0.22425541 0.06839838 0.29417726 0.046817288

net.0.bias f4 [32]
00000000: 7e2b 8c3d bbc4 b83d 147e 9abe 8a4a 793e
00000010: 2a87 90bc 6d53 5dbe 73a4 1e3d d165 893e
00000020: 3252 ea3d bf66 3bbd 4aca 40be d6fd cfbd
00000030: 82c0 063e 4151 503d 9094 d0bd 0ecb c53d
00000040: 9722 d53d 8043 82be 808e 79be fb1e 79be
00000050: ab52 1cbe d984 6e3e e850 573e 7378 aabe
00000060: b83d f6bb bd4d a0bd 2d43 09bd aed7 6cbe
00000070: 7759 c0bd d73b 343e 1227 c13d 7ee5 b6be
0.06844233 0.09021898 -0.30174315 0.2434484 -0.017642576 -0.21613856 0.03873105 0.26835492
0.11441459 -0.045752283 -0.18827167 -0.10155837 0.13159373 0.05085874 -0.10184586 0.0965787
0.10406988 -0.25442123 -0.24370766 -0.24328224 -0.1526591 0.23292865 0.21026957 -0.3329502
-0.0075146817 -0.078273274 -0.03351133 -0.2312915 -0.09392064 0.17600952 0.0943128 -0.35721964

net.3.weight f4 [64, 32, 3, 3]
00000000: 5725 523b 6596 7f3c 2ad3 4f3d ad5f a3bd
00000010: 3dbf babc fced bd3b 29fd 723c a321 e13c
00000020: b449 1c3d 7cf4 df3b 5533 1fbd 6758 b4bc
00000030: 37ea 81bd 86a4 a13c 4ed3 283c 5766 2b3c
00000040: 9e8b 3cbd 6839 81bd c149 42bd c204 333d
00000050: 398f 34bd 5618 afbd 8525 3ebd 6650 05bd
00000060: 2c64 2f3d 2af2 31bb 837c d4bc d473 613d
00000070: dd96 a43c 68c6 38bd 49c2 72bd 4dbe b3bc
00000080: f3d0 5bbd df4b 7cbd 7cd7 72bd b6db 89bd
00000090: 97a0 913c ba7e a7bc 56b7 03bc 74e1 d53a
000000a0: 9669 d9bc 7eb5 81bd 32fe f63c ba6f 973d
000000b0: c191 873d bc73 e03c b67d 43bd d719 2cbd
000000c0: 9ad3 00bd d43e 07bc dbd8 423d f313 b63b
000000d0: 3091 f73c 9024 38bb aaad 54bd 036f 47bd
000000e0: c606 123d 17d4 e7bb e236 45bd 94c2 893c
000000f0: 928e 81bd 78ba 94bd 4f06 aebc 3f8f 54bd
00000100: e36a b43c 0459 d43c 56ac a3bd 8427 1ebd
00000110: 4254 b9bc e8de a23c 7fa7 8ebc ee22 31bd
00000120: 7d0e 92bc 75f1 1c3d 669c 0c3d 7216 84bd
00000130: 11a3 0c3c f9f4 2f3d 848f 17bc dd33 69bc
00000140: ed17 f2bc 77d8 2b3d 51bc 863d 90a6 77bc
00000150: 7e14 eab9 4d4d 88bd 0286 9abc 885c 3ebd
00000160: 34f1 bf3b 647f 423d 60b3 123d 23ce f8bc
00000170: 8bd3 ba3c 632e 7a3b b32f 76bd 019d 56bd
00000180: f07b fe3b f1ed 573c b99f 80bc 5b1c 21bc
00000190: ae47 143b 71d6 143d 651f 36bd a8d5 28b9
000001a0: b5b8 46bd f602 233c fe29 20bd 75e6 6cbd
000001b0: 8a15 61bd 420d babb a1ad 0bba 8fe9 0cbd
000001c0: c36f c9bc 60a5 e6bc c7a6 253d e291 93bc
000001d0: 507a c2bc 10c5 bfbc ad43 43bd cd51 c1bc
000001e0: 4406 523c 3f4e 81bd f4a8 0d3d a271 0d3d
000001f0: ce8d 80bd 0ca1 a0bc de69 0ebd 69d5 c3bc
00000200: 0ad0 15bd 770c a7bd 85d7 5cbc 12f5 e8bc
00000210: c8b9 46bd fbe4 3cbd 1f90 a4bc 3e82 82bd
00000220: 6562 87bd 8f83 11bc 49ec 093d aa42 20bd
00000230: 85e8 09bc 2952 6dbd e412 febc 88bb 71bb
00000240: afa7 45bc 86ba 0a3d 5b49 87bc 4b8c 9a3a
00000250: a175 febc c43b edbc 0b70 533d edc2 cf3c
00000260: 28c9 22bd d985 01bb 6f8e eeba 33f9 da3c
00000270: be57 6dbd 677a 8a3c 6f4b 85bd 484d 053d
00000280: 8501 71bd f154 b1bc 486b 903b bb32 87bc
00000290: a774 85bc 05b1 cabc 89ed a6bd c869 81bd
000002a0: be79 ca3a 9737 63bd 16b5 46bd 6002 683b
000002b0: a5f9 053d 613d b43c d718 f3bc ae87 193d
000002c0: 3205 1dbd dc94 7b3c 34e3 723d 9e39 0a3d
000002d0: 06a5 683d a702 dd3c cb91 003d 2c94 e2bc
000002e0: 443d a0bb 8046 04bd 724b 34bd 9e8e 91bc
000002f0: b140 0c3c 9ce1 3fbd 6d6f 1c3d edd5 8c3c
00000300: fd82 2c3d f7c1 c13c 9668 b5bc 85a9 0ebd
00000310: cf13 d9bc 40e2 0d3d 1a0b 093d 3b34 ddb9
00000320: 7e4d 51bd 19bb e33c b882 59bc 9680 ed3c
00000330: 4a0c 74bc 3b55 00bd 1e47 99bd 7a6b 093d
00000340: 30d0 3abc 6d2e 5b3d b1ee 6d3c 1b90 2fbd
00000350: 9810 d3bc fbd2 16bd d87d 41bd 980f 81bd
00000360: 18b7 e339 f698 cbbd 9a20 abbd a6f8 a0bd
00000370: 9103 a5bd 9c54 9fbd 2b73 053d d27f ecbc
00000380: 986e 0ebd 26b9 72bd 1b87 223d a80b 463c
00000390: bb46 0b3d 21bd 46bc 288a 0abb b3f4 5f3d
000003a0: c7ed 16bd 8928 46bd e201 47bd d4c4 13bd
000003b0: f4ec 263d 8b43 41bd 579c 11bd acb7 4fbb
000003c0: 061c 7f3d 4136 6a3d 48f2 6b3d 7cee 153d
000003d0: 23c5 603b 9be0 513c a91a aa3c 14da 69bd
000003e0: 21aa 1dbc 5989 a63c 1135 e1bb 2f92 733d
000003f0: 2e69 b93c ec38 cabc 0b22 77bd 87a8 ffbc
0.0032065713 0.015599822 0.05073849 -0.07977233 -0.022796268 0.005796192 0.014830866 0.02748186
0.038156226 0.0068345647 -0.038867313 -0.02201481 -0.06343501 0.019731771 0.010304285 0.010461411
-0.046031587 -0.063097775 -0.04743362 0.04370571 -0.0440819 -0.085495636 -0.0464225 -0.032547377
0.04282014 -0.0027152398 -0.025938278 0.055042103 0.020091468 -0.04511109 -0.059267316 -0.021941328
-0.053666066 -0.061595794 -0.059287533 -0.0673136 0.01777677 -0.02044617 -0.008039316 0.0016317801
-0.026539605 -0.06333445 0.030150507 0.07394357 0.06619597 0.027398936 -0.04772731 -0.04201683
-0.0314518 -0.0082547255 0.04757009 0.0055565774 0.030220598 -0.0028097965 -0.05192343 -0.048689853
0.03565099 -0.0070748436 -0.048148043 0.016816415 -0.06326021 -0.072621286 -0.021243243 -0.051894423
0.022023624 0.025921352 -0.07991855 -0.038611904 -0.022623185 0.01988168 -0.017413853 -0.043246202
-0.017829174 0.03831621 0.03432884 -0.064495936 0.0085838 0.042958234 -0.009250525 -0.014233557
-0.029552424 0.041954484 0.06578887 -0.015115395 -0.00044647226 -0.06655369 -0.018862728 -0.046474963
0.005857611 0.04748477 0.035815597 -0.030371731 0.02280595 0.0038174621 -0.060104083 -0.052395824
0.0077662393 0.013179288 -0.015701162 -0.009833421 0.0022625732 0.03633732 -0.044463534 -0.00016101322
-0.048515994 0.009949436 -0.039102547 -0.05783697 -0.054952182 -0.00567785 -0.0005328302 -0.034402426
-0.024589425 -0.028155029 0.040442254 -0.018013898 -0.023739964 -0.023409396 -0.047671963 -0.023598576
0.012818877 -0.063137524 0.034584954 0.034532197 -0.06277047 -0.019608043 -0.03476893 -0.023905473
-0.036575355 -0.08156674 -0.013479118 -0.028437171 -0.04851702 -0.04611681 -0.020088254 -0.06372498
-0.06610564 -0.008881464 0.033672605 -0.039126076 -0.008417253 -0.057939682 -0.031014867 -0.003688546
-0.012063905 0.03386929 -0.01651447 0.0011791078 -0.03106195 -0.028959163 0.051620524 0.025361503
-0.03974262 -0.0019763617 -0.0018200408 0.026730156 -0.057945006 0.01690407 -0.065085284 0.032544404
-0.05883934 -0.021646949 0.00440732 -0.016503682 -0.016290976 -0.024742613 -0.08150775 -0.06319004
0.0015447659 -0.055472936 -0.04851254 0.0035401806 0.032708783 0.022001924 -0.02967493 0.03748291
-0.038335033 0.015355315 0.05929871 0.033746354 0.056798004 0.026978804 0.03138904 -0.027658544
-0.004890116 -0.032293797 -0.044017263 -0.0177682 0.0085603455 -0.046846017 0.0381922 0.017191852
0.042117108 0.02365206 -0.022144597 -0.034829635 -0.026498703 0.034639597 0.033457853 -0.0004219132
-0.051099293 0.027799176 -0.013275795 0.028991979 -0.014895508 -0.031331282 -0.07484268 0.033549763
-0.011402175 0.053511072 0.0145222405 -0.04286204 -0.025764748 -0.0368223 -0.047239155 -0.063018024
0.0004343323 -0.09941284 -0.08355828 -0.07859926 -0.08057321 -0.0777981 0.032580536 -0.028869543
-0.03477344 -0.059258603 0.039679628 0.01208774 0.034003 -0.012130053 -0.0021139476 0.054676723
-0.036847856 -0.0483785 -0.04858578 -0.03607638 0.04075332 -0.047183555 -0.035549488 -0.003169517
0.062282585 0.057180647 0.057604104 0.03660439 0.003429719 0.012809898 0.020764666 -0.05709274
-0.009623081 0.020329164 -0.006872781 0.059465583 0.022633161 -0.024685346 -0.0603352 -0.03120829

net.3.bias f4 [64]
00000000: baac f33c d6b8 3c3b ff4c 4dbd e294 06bd
00000010: f1be a43b fbde 83bd b315 5bbd e97f c93c
00000020: c725 633d 795d d73b fb4d 103d 7653 3fbd
00000030: e485 5b3c faad 2ebd 6587 5abd e431 0abd
00000040: 0b05 c33c d1cc 69bd 836d 6abc 6869 273d
00000050: 3838 dfbc ddf4 083c 5089 d43d 5ac0 31bc
00000060: 1562 22bc 1c60 16bd d9bb 953c 015d 29bd
00000070: 18ff 6a3d b34b 13bd 5567 6f39 e6f3 2cbd
00000080: b4f8 9abd 7aed 4dbd 9abb 8ebd b657 5f3d
00000090: 1ea8 a73c 3bf0 12bd d901 9f3c 9c62 a23b
000000a0: 1ba5 3bbd fa21 0abc fe65 803d 502d 99bb
000000b0: f037 ee3c 02bb f83c 9ee2 a8bc f6f2 dcbc
000000c0: 63f0 a03d ceef 643c 632f 3abd 6e8f 9fbc
000000d0: 4799 86bd da6a 14bd b7c2 803d 7633 c1bc
000000e0: 25f8 d63c d83c 223c 5cbe d63d b002 4a3d
000000f0: 2335 36bd c501 9dbb 2421 0a3a 0bb0 3c3a
0.029745448 0.0028796694 -0.050122257 -0.03285683 0.005027645 -0.064390145 -0.05348749 0.024597125
0.05545595 0.006572422 0.035230618 -0.046710454 0.013398621 -0.042646386 -0.05335178 -0.033738986
0.023806116 -0.057080094 -0.014308336 0.040872008 -0.027248487 0.008359161 0.10377753 -0.010849083
-0.00991108 -0.03671275 0.01827805 -0.04134846 0.057372183 -0.035960864 0.0002283131 -0.042224787
-0.075669676 -0.050275303 -0.06969376 0.054527007 0.020465907 -0.035873633 0.01941006 0.004955603
-0.045811754 -0.008430952 0.062694535 -0.004674591 0.029079407 0.03036261 -0.020615872 -0.026971322
0.0785835 0.0139731895 -0.045455348 -0.019477572 -0.06572204 -0.036234714 0.06287139 -0.023584109
0.026241371 0.009902202 0.10485527 0.04931897 -0.04448427 -0.0047914707 0.00052692206 0.00071978633

net.6.weight f4 [128, 64, 3, 3]
00000000: 4ff8 813c 09aa efbc b769 50bd 4dda 053c
00000010: f2dc 123d 06b4 03bc 2523 68bc e256 4bba
00000020: 209e d8bc a2fe 1fbc e419 42bd 7da9 823b
00000030: c71c cf3c 59e8 06bd 3391 a1bc a35e 323c
00000040: dd3b 403d 867f 153d c082 bebc 4c55 b0bc
00000050: 282c b1bc b7e7 4fbb 89a9 063c 5404 91bc
00000060: 21c9 13bd 02d2 e2ba a89c 203d 3c25 593c
00000070: 3f46 5a3c acd5 cc3c 9b55 bd3c ade5 433b
00000080: 6f1b 19bd 97f1 c7bc 872d 82bb ae31 8fbc
00000090: 3663 243d 3284 17bc cd77 8f3c 7f8f 4ebd
000000a0: 07aa 77bc 569e 39bd f046 b4bc 61fe 2ebd
000000b0: e698 5f3c df93 9e3b 1e95 93bc 5382 823c
000000c0: ce86 cbbb 1e51 2b3d ede3 1cbd 4d52 20bd
000000d0: 3e21 01bd 5fa0 44bc 16f7 c03c 80f9 32bc
000000e0: 9f59 40bd b8dc 313c a12a 853c 1957 34bd
000000f0: 0d60 afbc 7747 dcbc e485 803c 96f4 c23b
00000100: 8925 4abd 8618 febc 2147 083d bf33 223d
00000110: 150c 633c 5653 623a 12c2 d0bc 44cc 8bbc
00000120: d13d 2abc 9c00 65bc b25a a7bc 7085 9e3c
00000130: 95f8 14bd 4530 2f3b f759 793d c13c 963c
00000140: ad56 4b3d 3513 5c3d f22a 4d3c 1f9a 85bc
00000150: 3d4b 6c3c 12a8 62bc c6f6 8f3c 7c52 033d
00000160: 6ca2 613a a26f cd3c 39da 303d 4d12 00bd
00000170: d124 353d 3e8a ce3b d87f a83c a9b4 f83c
00000180: 5e4a a23c 73df e4bb 5a5a cbbb 4d65 19bd
00000190: af48 d4ba e6df ecbc 311f 0d3c 0c51 e2bc
000001a0: 02c3 283d 0f9d b2bc 808d 66bc ddd9 21bd
000001b0: 661d a5bc 9e25 d9bc 7983 2b3d f8ba 343d
000001c0: 30e1 f1bc 80ce 82bc 8cea 07bd a0f2 88ba
000001d0: 029a 093d a92b 193c aee0 6dbd 509c 3dbd
000001e0: 1c8b 5b3d 4065 3837 0502 503d 2fa4 80bc
000001f0: 3cf8 283c 0a47 60ba 8f63 7f3c 6023 d5bc
00000200: 9dce 9bbc 7f7f ffbc cb1d 5cbc c913 583b
00000210: fb86 0e3d d2f4 03bd 3030 e7bc 075d 043b
00000220: 4f81 15ba cbb3 fdbc ebb6 023c c39c 023d
00000230: f7dc afbc 1526 9abc 5fe9 54bd 4fb9 e3bc
00000240: 2463 273d 481a febc ec7c 063c 4392 043d
00000250: f503 913c bf21 b5bc 318e c03c 039e 363d
00000260: 12e6 73bb cfba b5bb f705 dabc d973 d1bc
00000270: 6b94 403c 0730 263d d6a0 4e3b fcfd 86bc
00000280: 7cfc 5cbd 8b1e fabc add8 d5bc 3cd9 2b3b
00000290: acdc b0b9 7556 c33b 6539 e3bb a6a7 01bd
000002a0: 4f6b 7ebc d6ad 9eba 0fa4 113d bae9 08bd
000002b0: 36cd d7bc 45e8 303d 0ba3 23bc 265a cdbc
000002c0: 5c0c cfb9 ed2b fbbc 31e4 0b3c 5b52 34bb
000002d0: 73e0 313c 6b24 fb3b 5788 453d b3d8 9d3c
000002e0: 1776 6b3c 7cdd 9238 2e13 0d3c 6079 363d
000002f0: 90c7 c5bb 567d 073d 5455 01bd 9e21 a63b
00000300: 0d1e 523c c85b 50bc a584 91bc 0663 e2bc
00000310: d7a4 dd3c f633 3fbd 6e02 453d f9b9 1e3d
00000320: e10c c43d 2615 b43c 17be 483d 1723 17bd
00000330: bde6 d23b 12e9 163d 05ef 513d d5d2 8d3c
00000340: ea48 723c 3e11 8abc a14c 833c 2ce7 253d
00000350: 462c a5bb c20c 70bc d1c0 6a3c 18ea cdbc
00000360: 8827 5d3c a214 89bc 4a11 76bc 3e04 2e3c
00000370: 398f 453d 8302 d23c a8b3 793c 05bf 3fbc
00000380: c2ae 093c 2328 afbb ba3d 87bc 2c56 51bc
00000390: 84e0 f0bc 5eba fd3c 474d 223d 0394 beba
000003a0: 8a1f 6d3b 8186 463d 76f4 cc3c 51b5 4d3c
000003b0: 0508 f03b 4416 95bc a63a 1abd 6ffe b5bc
000003c0: 04f8 003c ed93 99bb 8072 4fbc 6563 2d3d
000003d0: 04b2 eebb 1a29 5b3c 9f09 e1bc 3e13 b9bb
000003e0: 2411 0cbd a047 56bc a027 283d a2c6 713b
000003f0: a9f7 553c da4b d33a b70b 133d e0d7 3d3d
0.015865473 -0.029255884 -0.050882068 0.008169723 0.03585524 -0.008038526 -0.014168535 -0.0007756782
-0.026442587 -0.009765299 -0.047387972 0.0039874897 0.025282277 -0.032936428 -0.019722557 0.010886821
0.04693209 0.03649857 -0.023255706 -0.021525048 -0.0216275 -0.0031723806 0.008219131 -0.01770226
-0.036080483 -0.0017305019 0.0392119 0.013253506 0.013322412 0.02500423 0.023112109 0.0029891536
-0.03737968 -0.024407191 -0.0039727124 -0.017479744 0.040133677 -0.009247826 0.01751318 -0.050429817
-0.015116221 -0.045317017 -0.022006482 -0.042723063 0.013647294 0.004839405 -0.01801544 0.015931284
-0.0062111383 0.041825406 -0.038303304 -0.03914099 -0.031525843 -0.012001126 0.02355532 -0.010923743
-0.04696047 0.010855846 0.016255679 -0.044028375 -0.021408105 -0.026889546 0.015688844 0.005949567
-0.049352203 -0.031017553 0.03327096 0.03960013 0.013857861 0.0008633634 -0.025483165 -0.017065175
-0.010390715 -0.013977196 -0.02042899 0.019350737 -0.03636988 0.0026731652 0.060876813 0.018339517
0.049643207 0.053729255 0.012522446 -0.016308842 0.014422235 -0.013834016 0.017573725 0.032061085
0.00086072716 0.025077645 0.043176863 -0.031267453 0.044224564 0.006303101 0.020568773 0.030359583
0.019810852 -0.006984645 -0.006205839 -0.037450124 -0.0016195978 -0.028915357 0.008613394 -0.027626537
0.0412016 -0.021803407 -0.014071822 -0.03951441 -0.02015562 -0.026507195 0.04187343 0.04412362
-0.029526323 -0.015967607 -0.033182666 -0.0010448284 0.03359414 0.009348788 -0.0580756 -0.04629165
0.053599462 1.0990829e-05 0.050783176 -0.015703289 0.01031309 -0.00085555075 0.015587701 -0.026017845
-0.01901942 -0.031188725 -0.013434838 0.0032970777 0.034796696 -0.0322159 -0.02822122 0.002019705
-0.00057031674 -0.030969521 0.007978181 0.03188778 -0.021467669 -0.018816987 -0.051980373 -0.027798323
0.040866032 -0.031018391 0.008208495 0.03236605 0.017702082 -0.022110818 0.023505302 0.044584285
-0.003721599 -0.005545951 -0.026614172 -0.025567936 0.011754136 0.040573146 0.003152897 -0.016478531
-0.053951725 -0.030532142 -0.026104296 0.002622201 -0.0003373375 0.005961234 -0.006934332 -0.031654023
-0.015528514 -0.001210625 0.03555685 -0.033426024 -0.02634297 0.04319026 -0.009987603 -0.0250674
-0.00039491325 -0.030660594 0.008538292 -0.0027514908 0.0108567355 0.0076642535 0.048225727 0.01926837
0.0143714165 7.003077e-05 0.00861053 0.044549346 -0.0060357526 0.033078514 -0.031575516 0.0050699254
0.0128245475 -0.012717195 -0.017763445 -0.027635109 0.02705614 -0.046680413 0.04809802 0.038751576
0.09572769 0.02198274 0.04900941 -0.0368987 0.0064361976 0.036843367 0.051253337 0.017312447
0.014787892 -0.016853925 0.01602775 0.040503666 -0.005040678 -0.014651479 0.014328198 -0.025136039
0.0134981945 -0.016733471 -0.0150187705 0.010621129 0.04823229 0.025635963 0.015240587 -0.011703257
0.008403482 -0.005345361 -0.016508926 -0.012776893 -0.029403932 0.030972656 0.03962448 -0.001453996
0.0036182129 0.048468117 0.025018912 0.012555436 0.0073251748 -0.018199094 -0.037653588 -0.02221605
0.0078716315 -0.0046868236 -0.012661576 0.042331118 -0.0072844047 0.013376499 -0.027470408 -0.005648046
-0.034196034 -0.0130786 0.041053414 0.0036892076 0.013059535 0.0016120628 0.035899844 0.046348453

net.6.bias f4 [128]
00000000: d1f9 283d 1419 2f3b 5d44 04bd c34a 2ebd
00000010: ae2a 823c 1f9b 283d d294 debb 7272 9e3c
00000020: cfd1 033d 86a5 41bd b72f 5d3d 3da6 9bbb
00000030: 2c0f c5bc c066 18bd 1ed3 63ba edc8 44bd
00000040: 5cc8 35bd b3a6 e73c de8d 423c def7 2bbc
00000050: 7a7c eabc 8c27 96bc ffc0 f6bc 5c0c 46bc
00000060: d369 15bd a75a 643c 36d1 b13c af87 e63c
00000070: 240b 2e3c 8388 063d 9679 c13c d2b5 8bbc
00000080: 59ee c53a 3a8b a43c 62a2 ea3b 2b1d cc3a
00000090: b60c 3b3d f3cb 673c 54de 723c ed62 8e3c
000000a0: 2916 823c 64f7 5bbb d4b0 26bd 99b1 183d
000000b0: c8ce 493c d35a 603d e275 8bbb 01f5 593d
000000c0: 108c b1bc faa0 043c b13d 59bc 6c0d b3bc
000000d0: 211e af3c 83e2 1239 5b6f 16bb f84a 2c3b
000000e0: 82c6 0b39 a02d 79bc b113 783b 1382 77bd
000000f0: 41f3 e6bc 014b 21bd 2752 2b3d a383 30bc
00000100: 8f5c a0bb 4e57 29bd a2e9 aa3c 5350 e23c
00000110: 0e79 18bc 8829 de3c 3d47 27bd 9580 be3b
00000120: 2f61 553c ba85 cfbc 3710 26bd 4501 483d
00000130: 3f6e 13bd 525a ebbc 3e9e ae3c d21b 04bb
00000140: 40cd 1cbd 4a9a c43c d3ba 1bbc e0c7 29bd
00000150: f96f f1bb 4910 f7bb 70a3 80bd 555f afbc
00000160: e30a 703c 4756 e93c 988c 8bbc 960e 103d
00000170: 686e 1b3d e463 09bc 733d 423d c540 88bc
00000180: 3fd8 27bd f36a e43c 5ee8 babb 278f 053d
00000190: a9bc a8b9 ae33 ec3c b065 83bc f2a5 f63a
000001a0: 3d07 f03c 3dc5 1d3b a163 e3ba 1570 b93b
000001b0: 1ff1 2bbd 5c63 9cbc e323 a9bc beb2 a13b
000001c0: 2867 5dbc 99a3 f5bc b4b5 f4bb 2ba9 03bc
000001d0: 3193 463c 8039 29bc 5b73 ddbc 2438 91bc
000001e0: 05c9 0dbc 4add 86bc 14e5 2bbd fd07 01bd
000001f0: e196 f6bc 69ca a3bc 4211 97bc 9239 2d3d
0.04125387 0.0026717829 -0.03229176 -0.042551767 0.015889492 0.04116356 -0.006792643 0.019341681
0.03218251 -0.047276996 0.054000583 -0.0047500418 -0.024055086 -0.037207365 -0.00086908217 -0.04804318
-0.04438053 0.02827773 0.011874644 -0.010496108 -0.028623808 -0.018329404 -0.030121325 -0.012087908
-0.036477875 0.013937629 0.021706205 0.02814087 0.010622773 0.03284503 0.023617547 -0.017054472
0.001510094 0.02008592 0.007160471 0.0015572658 0.04566642 0.014147746 0.014823515 0.017381156
0.015879707 -0.0033564204 -0.04069598 0.037278745 0.012317367 0.054774117 -0.004255996 0.05321217
-0.021673232 0.00809502 -0.013259337 -0.021856986 0.021376671 0.00014008027 -0.0022954557 0.0026289802
0.00013330023 -0.015208632 0.0037853534 -0.060426783 -0.028192164 -0.03937817 0.041826393 -0.010773572
-0.0048938463 -0.041343026 0.020863358 0.027626192 -0.009306205 0.027119413 -0.040839422 0.005813668
0.013023659 -0.02533232 -0.040542807 0.048829336 -0.03599381 -0.028729592 0.02131569 -0.0020158184
-0.03828168 0.023999352 -0.009504992 -0.04145038 -0.0073680845 -0.007539783 -0.06281173 -0.021407763
0.014651033 0.028483523 -0.017034814 0.03517016 0.03794709 -0.008385632 0.047421884 -0.016632447
-0.040977713 0.027883029 -0.00570397 0.032607224 -0.0003218402 0.028833237 -0.0160397 0.0018817766
0.029300326 0.0024073862 -0.0017348417 0.005659113 -0.041977998 -0.019090347 -0.020646995 0.004934638
-0.013513364 -0.029985236 -0.0074679498 -0.008035938 0.012120054 -0.0103286505 -0.027032545 -0.017726965
-0.008653884 -0.01646294 -0.041966513 -0.03150176 -0.030101242 -0.019993978 -0.018440846 0.04229123

net.10.weight f4 [64, 128]
00000000: e9d1 9e3d 4a77 633d 921b a73c 8474 8ebd
00000010: bc0c c5bc 9882 a93c aec0 a8bd dac9 063d
00000020: d6a4 c93d 4f18 b63d 78ac 933d d69f 8fbd
00000030: 3dbd abbd 9d06 22bd 8396 82bd c635 503c
00000040: e749 0c3d 5b7d 22bd 6e52 c9bc 2286 f6bc
00000050: 69d5 17bd 84cb bf3d 5770 a53d 1a49 6f3c
00000060: 99eb a9bd 4f3b 87bd 0ec5 dabc 06eb 08bd
00000070: a92c f83a 118a 4dbc 016f 8e3d c6d6 d73d
00000080: a439 0bbd 0319 583d 200b 0c3c 06d4 d8bc
00000090: f3ef 5c3d 63cc 843d 1cf0 ad3d fed0 efbc
000000a0: 9654 b7bc 8597 93bc 7e9b bf3c f89e b63d
000000b0: 67f0 8a3d d755 c43d 08b5 8abd 7975 a83d
000000c0: 7af5 b1bd 42a1 80bd 3253 843d ae75 043c
000000d0: d7e8 32bc 936c b9bd de46 b3bc 9547 c2bd
000000e0: f4b1 98bc f62d 473d 25df 733d 0e2f bcbd
000000f0: 3400 923c 6696 b53d 4e43 933d 481f 01bd
00000100: 534d 173d f9c3 273c 5439 ae3d e0ea 67bc
00000110: fd68 83bd 36fe c83b cbf4 b43d b56a af3d
00000120: 66a8 a0bc b2f8 3a3d 6b5a babd 1e24 ec3c
00000130: 6f12 1dbd 7982 01bb 6066 a73d 7da0 babc
00000140: f4ba e9bc f84f 55bd 57a5 7b3d ee71 6ebd
00000150: f624 de3c 1ea3 d6bc d0db a23d 2251 483d
00000160: 5ea6 1b3d 5da7 acbd 6cd1 8f3d 2cb5 813d
00000170: 1744 8a3b 7045 383d a980 b83d ae4e b1bd
00000180: 3a0a 75bc 6fc0 de3d 686b 8d3d e4ea c53d
00000190: af73 c2bc fc9e af3d 6a04 2fbd d02f abbd
000001a0: 84a7 6c3d 52f7 80bd 1743 ab3d f45c b03d
000001b0: 6074 a33d a4d0 ce3c 3ddf aa3d e147 68bd
000001c0: 0f62 413d ac60 e63c d96b 513c edef 85bd
000001d0: 9151 44bd afd6 79bd 0a38 5c3b e3f6 893d
000001e0: 0f5d 983d 7662 853c 7a59 af3c 74e0 aabd
000001f0: b222 89bd 8c4f c1bc 8ba9 f73c c4ce 99bc
00000200: c49a 1d3d 1454 bc3d 82e6 77bc e54d e03c
00000210: 4236 663d 62e7 2c3d 9ed3 b23c c2a4 263d
00000220: e26c 893d 0a1d 6ebd 0246 9e3c 470e 91bd
00000230: 3f2b 1fbc 5214 aabd 2fd0 eebc d816 20bd
00000240: 9ddb ac3d 949e 79ba 24d1 8ebc d090 60bd
00000250: 6ddc 63bd 6403 9d3c 688a c6bc 8ce6 bc3c
00000260: b846 54bd 695b 873c c7a9 113d 1fcf 71bd
00000270: 9e30 a73d af80 edbc edee 4dbd a08c 85bd
00000280: b58b 06bd 5896 353d 4e45 ce3d f167 b5bd
00000290: 93f5 a5bd efcc 2d3c 909f 5a3b eae8 acbd
000002a0: 5518 683d 6ecb 45bd 4668 723d bda7 05be
000002b0: 0e6c af3d a697 5fbd 10d1 97bd 736d 9fbd
000002c0: 7a62 053d 95f7 673d cc31 9fbd f0d4 a2bd
000002d0: e3d8 16bd fc4c fd3c ab18 953d f191 12bd
000002e0: 1e77 aa3b 0a08 a5bb 752e 0e3d dcb8 46bd
000002f0: 31a7 cf3c d048 9cbc 6f63 34bd 1581 1c3d
00000300: e059 193d a0ea 19bd 0c38 2e3c 12ba d7bd
00000310: f75d 883c 8c44 08bd a7a3 433d 7bc7 833d
00000320: ab54 e63b c3f3 9cbd 9f4f 0bbd 9c73 53bd
00000330: e4e8 c6bc 533b ca3d c073 8abd 922f e2bd
00000340: eb2b dd3c f6c5 8ebd 1aee a3bd 831f 5fbd
00000350: 4561 213d 361b 893d e3ca 81bc 703c 4f3d
00000360: dd92 49bd a0f5 a33d 4e6b 3e3d 9c43 073d
00000370: deab 513d 8bf8 c8bc 26c9 80bc 20cc a63d
00000380: 7096 0b3c e575 1fbd a479 4a3d 8345 f93c
00000390: 37a9 55bd 6609 8fbd fef8 ad3c 4e23 78bc
000003a0: 5ba0 893d 0886 bfbc 7feb b4bd 499c 063b
000003b0: 6744 73bd 9151 b4bd 2322 54bd 5b07 883b
000003c0: b553 debd c51d 963d 3caf 61bd a703 cf3c
000003d0: d2f3 773a 3d02 3cbb 9a07 78bd ca41 0d3d
000003e0: c0c5 38bd 0391 06bd 641b 5a3d e89d 6fbd
000003f0: d1b5 3bbc 181e a33c 5b17 ac3d 1e46 41bd
0.07754881 0.055533685 0.020398889 -0.06955817 -0.024053924 0.020692155 -0.08239876 0.032907344
0.09845893 0.08891355 0.0721063 -0.07012908 -0.08385704 -0.03955709 -0.06376364 0.012708133
0.034250166 -0.03967033 -0.024575438 -0.030093256 -0.03706876 0.093649894 0.08078068 0.014604831
-0.0829689 -0.06603109 -0.026705291 -0.03342726 0.0018934208 -0.012545125 0.06954766 0.10539012
-0.033990517 0.052758228 0.008547574 -0.026468288 0.05393977 0.06484296 0.08493063 -0.02927446
-0.0223792 -0.018016586 0.023389574 0.0891704 0.06784134 0.09586685 -0.0677281 0.08225531
-0.08689399 -0.062807575 0.06461181 0.008084698 -0.010919771 -0.09053912 -0.021884378 -0.094863094
-0.018639542 0.048627816 0.05953898 -0.091886625 0.017822362 0.08866577 0.07190572 -0.031523973
0.036938976 0.010239595 0.08507028 -0.01415512 -0.06416509 0.00613382 0.08835753 0.085652746
-0.019611549 0.04564733 -0.09099277 0.028825816 -0.038347658 -0.0019761606 0.08173823 -0.022781605
-0.028531529 -0.052078217 0.061436977 -0.05821412 0.027117234 -0.026200827 0.07952082 0.0489055
0.038000457 -0.084303595 0.07022366 0.06333384 0.0042195427 0.044988096 0.09008915 -0.08657585
-0.0149560515 0.108765475 0.06905252 0.096639425 -0.023736803 0.08575246 -0.04272882 -0.08358729
0.057776943 -0.062971726 0.08362406 0.086114794 0.07981181 0.025245972 0.083433606 -0.056709174
0.047212657 0.028122269 0.012782061 -0.06539903 -0.04792935 -0.060995754 0.0033602738 0.06736543
0.074396245 0.016282301 0.02140497 -0.08343592 -0.06696071 -0.023597501 0.030232212 -0.018775351
0.038477674 0.09195724 -0.015130641 0.027380893 0.056204088 0.04221285 0.021829423 0.04068447
0.06710221 -0.058133163 0.019320492 -0.07082801 -0.0097149005 -0.08304657 -0.029152004 -0.039084285
0.084403254 -0.0009522226 -0.01743371 -0.054825604 -0.055630136 0.019166656 -0.02423592 0.023059152
-0.051825255 0.01652308 0.035562303 -0.059035417 0.0816357 -0.028992025 -0.050276686 -0.06520963
-0.03284808 0.044332832 0.100718126 -0.08857716 -0.0810348 0.010607942 0.0033359267 -0.08442862
0.05666383 -0.04828971 0.059181474 -0.13052268 0.08565532 -0.054587983 -0.074129224 -0.07784548
0.032564618 0.056632597 -0.0777317 -0.07950771 -0.036827933 0.030920498 0.07280096 -0.03578371
0.005202188 -0.0050363587 0.034712274 -0.04851614 0.025348278 -0.019077688 -0.04404014 0.03820904
0.037439227 -0.03757727 0.01063348 -0.10533537 0.016646368 -0.033268496 0.047763493 0.06434532
0.007029136 -0.07663681 -0.03401148 -0.051623926 -0.024280973 0.098745964 -0.06760359 -0.110442296
0.02699848 -0.06971352 -0.08004399 -0.05447341 0.039399404 0.06694643 -0.015843814 0.050594747
-0.049212325 0.080058336 0.046489052 0.03302346 0.051189296 -0.024532577 -0.015720915 0.081444025
0.008519754 -0.038930792 0.04943241 0.030428654 -0.05216333 -0.069842145 0.021236893 -0.015145136
0.067200385 -0.02337934 -0.0883398 0.002053993 -0.059391405 -0.0880462 -0.051790368 0.0041512675
-0.108558096 0.07329897 -0.055098757 0.025270296 0.00094586343 -0.0028687858 -0.060554124 0.03448657
-0.045110464 -0.032853138 0.053248778 -0.0585002 -0.011456923 0.01991181 0.08402892 -0.04718601

net.10.bias f4 [64]
00000000: 0771 cabc ea40 9d3d af2f a3bd 0505 91bb
00000010: f84d 813d 455a c2ba 49d8 943d a2ab 503d
00000020: 425e 633d 48ca 9b3d 8be4 2abc 628f 063c
00000030: ced3 8e3d e028 23bd 10ff d93a fe80 30bd
00000040: a32e 723d 47ab 2c3d 3a7c 973d f71c 0d3d
00000050: 8f82 bebd 1e4b 8f3c 7b23 44ba f6dd ae3c
00000060: 822b 54bd 0563 5b3d d592 993d 58b4 e63b
00000070: c88b b33d 0fc0 0abd bd31 593d 1ae8 e03a
00000080: 81bc 8d3d a5de 973d 8b3f 1bbc 5f0c 8bbd
00000090: c2ae 59bd c322 66bd c69b 833c 35fa c43b
000000a0: 8357 8d3d 1ab8 0bbd b48f 013d f044 40bd
000000b0: 0a03 a2bd 9d7d ad3d 8989 9d3c db6f 26bd
000000c0: 5e00 423d 2193 e83b de09 6ebd b8d8 84bd
000000d0: 4d86 9abd 5cc6 4d3c 22a7 403d 8e6d 56bd
000000e0: f9a9 96bc 1ae2 e83c 0fab 9939 8f91 1d3d
000000f0: 159b 9e3d 00fc a5bd ffec c23d ce65 9cbc
-0.024712099 0.07678397 -0.07968079 -0.004425647 0.063136995 -0.0014827928 0.072678156 0.05094493
0.055509813 0.076069415 -0.010430465 0.008212896 0.06973992 -0.039833903 0.0016631801 -0.043091767
0.059126507 0.04215553 0.07396741 0.03445145 -0.09302246 0.017491873 -0.00074820936 0.021346074
-0.051799305 0.05356123 0.07498709 0.0070405416 0.087668955 -0.033874568 0.05302595 0.0017159015
0.0692072 0.07415513 -0.009475599 -0.06789469 -0.053145178 -0.056185495 0.01606549 0.0060112723
0.06901457 -0.03411112 0.031631187 -0.046940744 -0.07910736 0.084712245 0.019230621 -0.040634017
0.04736363 0.0070976173 -0.05811488 -0.06486648 -0.07545147 0.0125595 0.04703439 -0.052350573
-0.018391596 0.028428126 0.00029309883 0.038468894 0.07744423 -0.08104706 0.0951786 -0.019091513
